Gui_szkolenie_4/torch_z_sets/banknn_model0.pt (torch, 2560 bytes, 3 tensors)

l1.weight f4 [11, 11]
0.061098646 -1.7245835 0.03079146 -0.0071546524 -0.23336473 0.033677768 0.29283658 0.43365148
0.38097623 0.42378357 0.40624574 0.4458971 -0.07813823 0.63907456 0.7112612 1.1528283
-0.36887607 0.08000329 -0.33308402 -0.33188295 -0.38158143 0.14293903 -0.09912667 -0.2570411
0.4455032 -0.038554125 0.1114166 0.83600074 -0.69287264 0.06797948 0.5760991 -0.074041635
-0.05370994 -0.11304112 1.0566202 0.26615012 -0.20417978 0.08299654 -0.14775968 -0.71320224
-0.48023584 -0.014885876 -0.5458931 -0.8709047 0.075316794 -0.13392387 -0.059689365 0.16358952
-1.6746513 -0.12818667 -0.034913614 -0.15447766 -0.37470582 -0.391035 -0.18046418 0.069659434
-0.2582238 -0.08952096 -0.42267334 -1.6611209 -0.030236227 0.3765567 -0.35765013 -0.31460568
-0.03920705 -0.3615854 0.058159653 -0.26568466 0.32217094 -0.16130564 0.7184381 0.52974945
-0.66903883 0.28738764 0.41637823 0.34859818 -0.12805147 0.08548063 -1.2618212 0.02195612
-0.10328774 0.18880662 0.13607654 0.19939283 0.28255612 0.09548402 0.4046652 0.10694653
-0.14232215 -0.061888892 -0.03409548 -0.49628854 -1.6278286 0.037156522 0.42364898 -0.36927715
-0.5214654 -0.45541337 -0.12458007 -0.059063658 -0.019218052 -0.28053194 0.4556235 1.3961436
-0.10978543 -0.87926483 -0.59076786 -0.3658553 -0.50409424 -0.41688976 -0.33550796 0.012643655
-0.11763062 0.22151427 1.1224896 0.1615018 -0.5372753 -0.54522985 -0.35220373 -0.6106553
-0.08878826
00000000: 9342 7a3d 27bf dcbf 5f3e fc3c 9371 eabb
00000010: 2af7 6ebe b3f1 093d adee 953e 9107 de3e
00000020: 510f c33e 29fa d83e 71ff cf3e a04c e43e
00000030: f006 a0bd 649a 233f 3715 363f e18f 933f
00000040: 53dd bcbe c4d8 a33d fd89 aabe 90ec a9be
00000050: a45e c3be 9c5e 123e ec02 cbbd e49a 83be
00000060: ff18 e43e eeea 1dbd 632e e43d 2504 563f
00000070: 1a60 31bf d338 8b3d 3b7b 133f 24a3 97bd
00000080: f4fe 5bbd 1a82 e7bd 553f 873f d444 883e
00000090: 8114 51be 17fa a93d 504e 17be 6c94 36bf
000000a0: 79e1 f5be e4e3 73bc a6bf 0bbf 9cf3 5ebf
000000b0: b13f 9a3d 5723 09be d67c 74bd 0384 273e
000000c0: f95a d6bf 5e43 03be 9401 0fbd 642f 1ebe
000000d0: 71d9 bfbe bd35 c8be 9acb 38be 9ba9 8e3d
000000e0: e935 84be c456 b7bd a468 d8be 9c9f d4bf
000000f0: f7b1 f7bc 0acc c03e eb1d b7be ff13 a1be
00000100: 9297 20bd b921 b9be d138 6e3d d207 88be
00000110: 97f3 a43e 4e2d 25be 8feb 373f a99d 073f
00000120: 2146 2bbf 7924 933e 872f d53e 767b b23e
00000130: ed1f 03be 7810 af3d 5b83 a1bf 52dd b33c
00000140: 8688 d3bd 8656 413e a657 0b3e a22d 4c3e
00000150: 32ab 903e 208d c33d 4730 cf3e c806 db3d
00000160: e6bc 11be 357f 7dbd b4a7 0bbd 8819 febe
00000170: b05c d0bf 7031 183d 85e8 d83e e511 bdbe
00000180: c27e 05bf f12b e9be d623 ffbd bcec 71bd
00000190: 2d6f 9dbc e2a1 8fbe 7c47 e93e d5b4 b23f
000001a0: 2fd7 e0bd 8017 61bf 903c 17bf 6351 bbbe
000001b0: 520c 01bf 9372 d5be b3c7 abbe 5527 4f3c
000001c0: 53e8 f0bd a3d4 623e bdad 8f3f ba60 253e
000001d0: e08a 09bf 2f94 0bbf 0c54 b4be e853 1cbf
000001e0: 9fd6 b5bd

l1.bias f4 [11]
0.2107149 -0.17486843 0.08247536 -0.44279715 0.13642932 -0.15818845 -0.05402334 0.42549288
-0.27701998 -0.2953486 -0.5742173
00000000: a6c5 573e b610 33be d7e8 a83d 4fb6 e2be
00000010: 21b4 0b3e 27fc 21be 9447 5dbd 34da d93e
00000020: 90d5 8dbe ef37 97be e8ff 12bf

output.weight f4 [1, 11]
-0.8979892 0.3516046 0.1906062 -0.51515824 0.5177054 0.57220227 0.17288314 -0.3155049
0.8167608 0.8871685 0.65822154
00000000: 9fe2 65bf 8505 b43e 462e 433e 69e1 03bf
00000010: 5788 043f d97b 123f 4708 313e dc89 a1be
00000020: 3c17 513f 7a1d 633f 3581 283f
