Gui_szkolenie_4/torch_z_sets/bank_30k_model0.pt (torch, 46232 bytes, 5 tensors)

l1.weight f4 [90, 90]
0	0xbd58fa4b	-0.052973073
1	0xbd62dba2	-0.05538524
2	0x3d7af584	0.0612693
3	0xbd93f36a	-0.07224162
4	0xbd52b29c	-0.051439866
5	0x3d613bac	0.05498855
6	0xbda52e5c	-0.08065483
7	0x3d4b2998	0.049600214
8	0x3d86b6f3	0.065778635
9	0x3cf95aa2	0.030438725
10	0x3c9ac68d	0.018893505
11	0x3d2f89e2	0.042856105
12	0x3da762dc	0.08173153
13	0x3c29c3f5	0.010361661
14	0xbd986f49	-0.07443101
15	0x3dc7323c	0.09726378
16	0x3d9efc74	0.07762995
17	0xbb1ffa96	-0.0024410835
18	0xbd7975a6	-0.060903214
19	0xbd2000ba	-0.039063193
20	0xbdb98fde	-0.090606436
21	0x3d941d19	0.072321124
22	0xbbf8bd1c	-0.007590903
23	0x3d99076e	0.0747212
24	0x3d293c10	0.041317046
25	0xbc97ae98	-0.01851587
26	0xbd8891cd	-0.06668434
27	0x3d1d7d84	0.03844978
28	0xbd8577b6	-0.06516974
29	0xbcabb5da	-0.020960737
30	0x3d8513df	0.06497931
31	0xbd626c50	-0.055279076
32	0xbb5bac98	-0.0033519622
33	0xbc4218ca	-0.0118467305
34	0x3c5903aa	0.0132455025
35	0x3dd4cba0	0.10390401
36	0x3d833ef1	0.064084895
37	0xbd1ecd4a	-0.038769998
38	0x3dc41832	0.095749274
39	0xbd0410f6	-0.032242738
40	0x3d3123dc	0.04324709
41	0x3d3cbd24	0.046078816
42	0xbb04b357	-0.0020248496
43	0xbdc3f331	-0.095678695
44	0x3dd00045	0.101563014
45	0xbcc0db66	-0.023542117
46	0x3d981142	0.07425167
47	0xbd7a997d	-0.061181534
48	0xbc331d42	-0.010932269
49	0x3dbe1c73	0.0928277
50	0xbdb8eee3	-0.09029939
51	0x3bd46359	0.0064815697
52	0x3a8efd10	0.0010909159
53	0xbdb6db40	-0.08928537
54	0xbc930eb7	-0.017951353
55	0xbdc1b34e	-0.09458028
56	0x3cb92106	0.022598755
57	0x3c974ff7	0.018470747
58	0x3d7e4294	0.062075213
59	0x3ba72bb4	0.0051016454
60	0xbd23c0f2	-0.03997893
61	0xbd1baad6	-0.03800472
62	0xbd213106	-0.039353393
63	0x3da7f14d	0.08200321
64	0x3d0a5c9a	0.033779718
65	0xbdd6f0b3	-0.104951285
66	0x3cae91de	0.02130979
67	0xbc6698b8	-0.014074497
68	0x3d9d7d13	0.07689872
69	0xbcfc93c0	-0.030832171
70	0x3dbc6db1	0.092006095
71	0x3d056a66	0.032572173
72	0xbdc28076	-0.09497158
73	0x3cb5a0b4	0.022171356
74	0xbcc51ad4	-0.024060644
75	0x3d5821aa	0.05276648
76	0xbdb7d236	-0.089756414
77	0xbbc2e308	-0.0059474744
78	0x3d93b8dd	0.07212994
79	0x3d231bf6	0.039821588
80	0x3d4b275e	0.04959809
81	0x3db6c743	0.08924725
82	0x3d3a6008	0.04550174
83	0x3d110a1c	0.03541003
84	0x3cc5d5c6	0.024149787
85	0x3c1a1262	0.009403797
86	0x3dbd8afc	0.09255025
87	0xbcb2edd3	-0.021841919
88	0x3c825b51	0.015912684
89	0x3aa8ea6e	0.0012887248
90	0xbcd9e2d8	-0.026597425
91	0x3da2e845	0.07954458
92	0x3b637143	0.003470496
93	0xbdbcef12	-0.092252865
94	0x3d9410cc	0.07229766
95	0xbd195fed	-0.037444998
96	0x3bfe86b1	0.0077675213
97	0xbdc8d3f3	-0.09806051
98	0x3d34aa61	0.0441078
99	0xbd8f16a3	-0.069867395
100	0xbc42bd33	-0.011885929
101	0x3dbe620c	0.09296045
102	0x3ce2a9c0	0.027668834
103	0x3db8ea85	0.09029106
104	0xbd615d0e	-0.055020384
105	0xbdc86de3	-0.09786584
106	0xbdaa2b4c	-0.083090395
107	0xbd137261	-0.035997752
108	0xbd01b113	-0.03166301
109	0xbba0e21d	-0.0049097673
110	0x3d80bf6b	0.0628651
111	0x3dc1927a	0.09451766
112	0xbdcf4415	-0.101204075
113	0xbd70288b	-0.058632415
114	0x3dbea013	0.093078755
115	0xbc76a675	-0.015054335
116	0xbcea0c2d	-0.028570259
117	0xbdcfa9e6	-0.101398274
118	0xbc6fc59f	-0.014634519
119	0xbdba8bc6	-0.09108691
120	0x3dbc3061	0.09188915
121	0xbd3bf41c	-0.045887098
122	0xbcf7ee0a	-0.030264873
123	0x3cb629b6	0.022236686
124	0x3d4cda44	0.05001284
125	0x3dc1cd0a	0.09462936
126	0xbc797aba	-0.015227014
127	0xbd9dca90	-0.07704651
128	0x3dc1eca1	0.094689615
129	0xbca26822	-0.019825045
130	0x3d167417	0.036731806
131	0xbd9e05d3	-0.07715955
132	0xbd85f5e8	-0.065410435
133	0xbbaf3b91	-0.005347677
134	0xbd049a26	-0.03237357
135	0x3baf7dc2	0.0053555677
136	0x3d2d57b7	0.04231998
137	0x3c52b2f3	0.012860048
138	0xbd426079	-0.047455285
139	0x38f2ae82	0.00011571964
140	0x3dab2ef3	0.08358564
141	0x3dc25a8c	0.09489927
142	0x3db95240	0.09048891
143	0x3d922d1b	0.071375094
144	0x3d77af3b	0.060469847
145	0x3ddb26fd	0.10700796
146	0xbdcc42fa	-0.09973712
147	0xbdbac7f2	-0.09120168
148	0x3d8581cc	0.065188974
149	0x3dd4d2ae	0.103917465
150	0xbd9362e0	-0.07196593
151	0x3d40e87a	0.047096707
152	0xbd5ffad4	-0.054682568
153	0xbc9c8e6c	-0.01911088
154	0x3dcc9337	0.099890165
155	0xbd7e997f	-0.062158104
156	0x3d5a2edd	0.05326735
157	0x3d9e5a4d	0.07732067
158	0x3d511842	0.051048525
159	0xbd934bfd	-0.07192228
160	0x3d048c7a	0.03236053
161	0xbdc2f5f7	-0.0951957
162	0xbd5e9ae5	-0.054346938
163	0xbd7acb47	-0.061229017
164	0x3d92e121	0.07171846
165	0x3cca7ccc	0.02471771
166	0x3dd23780	0.10264492
167	0x3d90536e	0.07047163
168	0xbcf0d584	-0.029398687
169	0x3dd596ce	0.10429154
170	0xbd8fd573	-0.07023134
171	0xbd04c742	-0.03241659
172	0xbccb8376	-0.024842959
173	0x3d34f534	0.044179156
174	0xbd2eda32	-0.042688556
175	0xbda62da9	-0.08114178
176	0x3d87ab73	0.06624498
177	0x3db7a167	0.08966332
178	0x3d886159	0.066591926
179	0x3d6bd073	0.05757184
180	0xbcfecd5b	-0.03110378
181	0xbd0ad08e	-0.0338903
182	0xbdc1f0b3	-0.09469738
183	0xb98ed28e	-0.00027241226
184	0x3d86a19d	0.06573794
185	0x3d554082	0.052063473
186	0x3db46a50	0.0880934
187	0xbdabe0e3	-0.08392503
188	0xbdba4616	-0.09095399
189	0x3d51e336	0.051242076
190	0x3dd28ada	0.1028039
191	0xbd08b72e	-0.03337782
192	0x3cabfee2	0.020995561
193	0x3d034006	0.03204348
194	0x3d67fdfb	0.0566387
195	0x3c8058bb	0.01566731
196	0xbdb91fed	-0.090392925
197	0xbc980a0e	-0.018559482
198	0x3d6518f0	0.055931985
199	0xbb3879b6	-0.0028148717
200	0xbd96edb6	-0.073695585
201	0xbd820c6c	-0.063500255
202	0xbd06257c	-0.03275059
203	0x3da5b0be	0.080903515
204	0x3c98d3c9	0.018655675
205	0x3da66fef	0.081268184
206	0x3c40fb8c	0.011778723
207	0x3d88d750	0.066816926
208	0x3c507b66	0.012724733
209	0x3d992457	0.074776344
210	0x3dbfa3e8	0.093574345
211	0xbdafdb5d	-0.08586762
212	0xbd9b7053	-0.075897835
213	0xbd16037a	-0.03662441
214	0xbaa94df5	-0.001291691
215	0xbcff8fdb	-0.031196525
216	0xbdb418ed	-0.08793817
217	0x3b2777c1	0.0025553557
218	0x3d92c3dd	0.07166264
219	0xbda8f695	-0.08250157
220	0x3cc354e5	0.023844192
221	0xbd85ce54	-0.065334946
222	0x3d5b5988	0.05355218
223	0xbc51be75	-0.012801756
224	0x3da06f7f	0.07833766
225	0x3d6494cd	0.05580597
226	0xbd9583fe	-0.07300566
227	0x3db93954	0.090441376
228	0xbdc045b1	-0.093882926
229	0xbbf49dc7	-0.0074650976
230	0x3d6c793c	0.057732806
231	0x3d2c70cf	0.04209977
232	0xbda25c78	-0.07927793
233	0x3c201779	0.009771221
234	0xbd1f2a56	-0.038858734
235	0xbccaef29	-0.024772244
236	0xbdb6122f	-0.08890187
237	0x3d0e3b90	0.034724772
238	0x3db1d456	0.08683078
239	0x3d453556	0.04814657
240	0x3d24f28e	0.04027038
241	0xbd867a39	-0.06566281
242	0xbd7cc351	-0.061709706
243	0x3c2c90e0	0.010532588
244	0x3d179a06	0.037012123
245	0xbd8599c4	-0.06523469
246	0xbdc64737	-0.09681552
247	0xbbadd0a0	-0.005304411
248	0xbcd657c4	-0.026164897
249	0x3d1dc252	0.038515396
250	0x3ba794a0	0.005114153
251	0xbd899feb	-0.06719955
252	0xbcecdc0c	-0.02891352
253	0xbcc433e8	-0.023950532
254	0xbdc11950	-0.09428656
255	0x3d7266ba	0.05918

l1.bias f4 [90]
0	0x3bef1804	0.007296564
1	0x3d887982	0.06663801
2	0x3dd5ea27	0.10445052
3	0xbdb0ff0f	-0.086423986
4	0x3c545226	0.012959039
5	0x3cb9b461	0.02266902
6	0xbcc2c7bd	-0.023776883
7	0x3dc16bad	0.09444366
8	0xbdd97720	-0.106184244
9	0x3da6e98a	0.08150013
10	0xbd519d87	-0.05117562
11	0xbbaa45d5	-0.005196313
12	0x3da86fde	0.08224462
13	0x3c297117	0.010341904
14	0xbdc9b874	-0.09849635
15	0xbd228e2b	-0.039686363
16	0xbda7be5a	-0.081906036
17	0x3d97cbdd	0.07411931
18	0x3dc78567	0.09742241
19	0x3dd191c2	0.10232879
20	0xbda66e1a	-0.08126469
21	0xbc9892e0	-0.018624723
22	0x3d2db8de	0.04241263
23	0xbd58ae53	-0.052900624
24	0x3d675874	0.05648084
25	0x3cf713d9	0.030160831
26	0x3dc42a9a	0.09578438
27	0x3d970dd4	0.073756844
28	0xbcf35699	-0.029704379
29	0xbdbf84d3	-0.09351506
30	0xbd45f8fd	-0.048333157
31	0xbd0c03ff	-0.0341835
32	0x3dce2fb5	0.10067693
33	0xbd995b86	-0.0748816
34	0x3ce17aa3	0.027524298
35	0x3d6c5642	0.05769945
36	0x3d350b37	0.04420015
37	0xbb483f66	-0.0030555367
38	0x3c637233	0.013882208
39	0x3d93ff3c	0.072264165
40	0xbcd70be2	-0.026250783
41	0xbd62bc48	-0.05535534
42	0x3b575425	0.003285655
43	0x3dcd751a	0.10032101
44	0xbca36cec	-0.019949399
45	0xbc223d24	-0.009902272
46	0x3db39539	0.08768696
47	0x3cecfcbd	0.028929109
48	0xbd72df67	-0.059295084
49	0x3b92c67a	0.0044792267
50	0xbc3a3c4f	-0.011366918
51	0xb9b5d70c	-0.00034683233
52	0x3cc53132	0.02407131
53	0xbcd02e65	-0.025412748
54	0x3dbfe4e3	0.093698286
55	0xbc77b7c7	-0.0151194995
56	0xbd8e3fd1	-0.06945766
57	0xbc8a6fed	-0.016899073
58	0xbcbd9a41	-0.023144843
59	0xbdcc0bf1	-0.09963215
60	0xbd8d68bf	-0.06904744
61	0xba897864	-0.001048815
62	0x3bfed53f	0.0077768858
63	0x3c42f986	0.011900311
64	0x3a8219e2	0.0009925927
65	0xbbeab776	-0.0071629835
66	0x3d4a13d5	0.04933532
67	0xbdb4fe8f	-0.08837616
68	0xbbd59239	-0.0065176752
69	0xbdcf26dc	-0.10114834
70	0xbd04a255	-0.032381374
71	0xbc59a10f	-0.013283028
72	0x3cad9f8a	0.021194238
73	0x3d527945	0.051385183
74	0xbb9400f7	-0.0045167166
75	0xbdd67b12	-0.104726925
76	0xbceb117d	-0.028694862
77	0x3d4a5b38	0.0494034
78	0xbbdc9eea	-0.006732811
79	0x3d47abe2	0.048747905
80	0x3d99b2f0	0.07504833
81	0x3d8b34dd	0.06797192
82	0xbbc8f25c	-0.006132407
83	0x3cb8c8be	0.022556659
84	0x3cce68b0	0.025196403
85	0x3d61ea2b	0.05515496
86	0xbb38c45d	-0.0028193214
87	0xbda5a925	-0.080889024
88	0x3c5736a3	0.013135585
89	0x3b1dbb16	0.002406781

l2.weight f4 [30, 90]
0	0xbd7d08bb	-0.061775904
1	0x3c1285e4	0.008943055
2	0xbd7780e8	-0.06042567
3	0xbcd254e2	-0.02567524
4	0xbdc4b879	-0.09605498
5	0x3d829e48	0.06377846
6	0xbc1bfe19	-0.009521031
7	0x3cada1d0	0.021195322
8	0x3c0fdfd5	0.008781393
9	0x3d0e9e5f	0.034819003
10	0xbcaf4de3	-0.021399444
11	0x3d5ba4c7	0.05362394
12	0x3dd24790	0.10267556
13	0x3d3a8108	0.04553321
14	0x3db82ee7	0.08993321
15	0x3b01cf04	0.0019807229
16	0xbd90ccf2	-0.0707034
17	0xbd44c759	-0.048041675
18	0x3dcf3c8a	0.10118969
19	0x3d88b86b	0.066758
20	0xbcb45d4b	-0.022017142
21	0x3d73c6d7	0.0595158
22	0x3da5c68d	0.08094511
23	0x3c97cbc9	0.01852979
24	0xbd455d61	-0.048184756
25	0xbc5c201a	-0.013435388
26	0xbda536a6	-0.08067064
27	0xbd761983	-0.060082924
28	0x3cf61fff	0.030044554
29	0x3d889f13	0.06670966
30	0xbdc8951c	-0.09794065
31	0xbc8b6a6b	-0.017018517
32	0xbad2fd6b	-0.0016097253
33	0x3dbb595a	0.09147902
34	0xbc92f3e9	-0.017938571
35	0xbda00c70	-0.07814872
36	0xbdc04afc	-0.09389302
37	0x3d88f704	0.066877395
38	0x3dcafec2	0.099118724
39	0xbd83ebe9	-0.06441481
40	0xbd6c2a5d	-0.05765759
41	0xbd8b79c7	-0.068103366
42	0xbdc1f56f	-0.09470641
43	0xbd98b8a6	-0.07457094
44	0x3d91ee8d	0.07125578
45	0xbd93e395	-0.07221142
46	0x3c9beddd	0.01903432
47	0x3d247b2c	0.04015653
48	0xbcdc7cae	-0.02691492
49	0xbd075247	-0.03303745
50	0x3d858402	0.06519319
51	0xbd1c1d43	-0.038113844
52	0x3d8ba7dc	0.06819126
53	0xbd1a3bcc	-0.037654683
54	0x3d637eb1	0.055540744
55	0xbd5d6438	-0.054050654
56	0x3dcf8cf4	0.101343066
57	0x3c9b64f3	0.018969035
58	0x3baf9054	0.0053577814
59	0x3dc830cb	0.097749315
60	0x3b8354c5	0.004007908
61	0x3d2018b2	0.03908605
62	0x3da431e9	0.08017332
63	0x3d84744b	0.064674936
64	0xbbc9f84d	-0.006163633
65	0xbdc0955c	-0.09403488
66	0xbd39f74c	-0.045401856
67	0x3dc2410a	0.094850615
68	0x3dd57e87	0.10424524
69	0x3da03986	0.07823472
70	0x3da3334c	0.079687685
71	0xbd111174	-0.035417035
72	0xbdafe4b7	-0.08588546
73	0xbdc1f39a	-0.094702914
74	0x3db4741f	0.08811211
75	0xbd9270fd	-0.07150457
76	0xbcc5bc9b	-0.024137786
77	0xbb742f3f	-0.0037259606
78	0x3dc0a25c	0.094059676
79	0xbd3085bf	-0.0430963
80	0x3cbcbc76	0.023039084
81	0x3d25f185	0.040513534
82	0xbb598458	-0.0033190455
83	0xbdba5e78	-0.0910005
84	0xbd04d0be	-0.032425635
85	0xbcd4fe46	-0.026000153
86	0xbc429301	-0.011875869
87	0xbcc0a869	-0.023517804
88	0xbd9aa127	-0.075502686
89	0x3c8f49ca	0.01749124
90	0xbdc59307	-0.09647184
91	0x3d6d9f1f	0.058013078
92	0xbc376e26	-0.011195695
93	0xbdac9e1c	-0.084285945
94	0xbda3c91b	-0.07997342
95	0x3d09d402	0.033649452
96	0xbc1ee7ed	-0.00969885
97	0x3dd20966	0.10255699
98	0xbafdcdda	-0.0019363717
99	0x3b9820ac	0.0046425667
100	0x3dc952c2	0.09830238
101	0x3bc97a85	0.0061486387
102	0x3dc8689b	0.09785577
103	0x3d34895a	0.0440763
104	0x3db2856c	0.087168545
105	0x3c2ddcab	0.010611693
106	0xbda694a5	-0.081338204
107	0x3d9dc80e	0.07704173
108	0x3ce80940	0.028324723
109	0xbd6a2ae4	-0.05716981
110	0x3d8ec20b	0.069706045
111	0xbd4cbb00	-0.049983025
112	0xbccf57b5	-0.025310377
113	0x3c78e8f1	0.015192256
114	0x3cf14c74	0.029455401
115	0x3ca02efc	0.019553654
116	0x3aeda43b	0.001813061
117	0x3da071dc	0.07834217
118	0xbc9a5579	-0.018839585
119	0x3db70911	0.08937276
120	0x3d582df4	0.0527782
121	0x3d17de5f	0.037077304
122	0xbc90cd1f	-0.017675934
123	0xbd24f557	-0.040273037
124	0x3d32550e	0.043538146
125	0xbd69ef3f	-0.05711293
126	0xbd27cc61	-0.040966395
127	0x3d8ee4f5	0.06977264
128	0xbcac2da6	-0.02101786
129	0xbd00960f	-0.031393107
130	0x3d835145	0.06411985
131	0xbd803b55	-0.06261317
132	0xbd90315f	-0.07040667
133	0x3db06820	0.0861361
134	0x3dc0e228	0.09418136
135	0xbd05e1aa	-0.032685913
136	0xbc6d7c87	-0.014495022
137	0xbc5def5d	-0.013545838
138	0xbd9defea	-0.077117756
139	0xbdc97d7a	-0.09838386
140	0xbd4bb721	-0.049735192
141	0x3d8b6b03	0.0680752
142	0x3d22260a	0.039587058
143	0x3d1bd900	0.038048744
144	0xbd630b4a	-0.055430688
145	0x3d860054	0.06543031
146	0xbcd0a91f	-0.025471268
147	0x3c1733a6	0.009228623
148	0xbcc96fde	-0.024589475
149	0x3dbc774c	0.092024416
150	0xbdd2756b	-0.10276302
151	0x3d2a108b	0.041519683
152	0x3da643fd	0.081184365
153	0xbdbf0074	-0.09326258
154	0x3d473858	0.048637718
155	0xbdb99ae0	-0.09062743
156	0x3d8fd207	0.070224814
157	0xbd715252	-0.058916397
158	0xbd822279	-0.063542314
159	0x3d3a5754	0.04549344
160	0xbd9e8051	-0.07739318
161	0xbdc12015	-0.09429947
162	0xbdd124d6	-0.10212104
163	0xbd837cdd	-0.064203
164	0xbbacb059	-0.0052700457
165	0x3c1e611c	0.009666707
166	0xbdb47e6a	-0.08813174
167	0x3dd0df9f	0.10198902
168	0xbdc9fb59	-0.09862394
169	0x3b680007	0.0035400407
170	0xbcd0d34b	-0.025491377
171	0xbdba333e	-0.09091805
172	0x3dc9b544	0.09849027
173	0x3d33c83d	0.043892134
174	0xbdc68248	-0.09692818
175	0xbdb2632f	-0.08710324
176	0x3d667197	0.05626067
177	0xbda64e03	-0.08120348
178	0x3b94e479	0.0045438376
179	0x3d2bb6ba	0.04192231
180	0x3cc24268	0.023713306
181	0xbd4a5937	-0.04940149
182	0xbd65042b	-0.055912178
183	0x3c0e42c4	0.00868291
184	0xbda43771	-0.08018387
185	0x3d1c188b	0.038109343
186	0xbc01e0dc	-0.007927146
187	0x3cce8af2	0.025212739
188	0x3ba6828b	0.00508148
189	0xbdabcd75	-0.08388797
190	0xbdb1c43a	-0.08680005
191	0xbc8c6303	-0.017137056
192	0xbb073476	-0.0020630634
193	0xbdd1e285	-0.10248283
194	0xbdc9cbf5	-0.09853355
195	0xbd5f97db	-0.05458818
196	0x3c05afad	0.00815956
197	0xbcf9609d	-0.030441577
198	0xbd91c41f	-0.07117485
199	0x3d29a9d0	0.04142171
200	0x3d7a7ab6	0.061152183
201	0x3aa59739	0.0012633569
202	0x3d8dd068	0.06924516
203	0x3d82e817	0.06391924
204	0xbd8d01c8	-0.06885105
205	0xbd198b20	-0.037486196
206	0xbcd4f474	-0.02599547
207	0x3dc1311b	0.09433194
208	0xbd0eca4f	-0.034860905
209	0x3c6e0fc3	0.014530125
210	0x3c8b93f0	0.017038316
211	0xbdd814a0	-0.10550809
212	0xbd4f2caf	-0.050579723
213	0xbd284e3d	-0.04109024
214	0xbd80d3c8	-0.06290394
215	0xbd84a686	-0.06477074
216	0xbc9f0301	-0.019410612
217	0xbc7d73da	-0.015469516
218	0x3d81bac5	0.063344516
219	0x3d8958f6	0.06706421
220	0xbdacd13a	-0.08438344
221	0xbcfda218	-0.030961081
222	0xbdba3927	-0.09092932
223	0xbd37fb04	-0.04491712
224	0xbd01cf38	-0.03169176
225	0x3bc5ab62	0.0060323933
226	0xbdcad203	-0.09903338
227	0xbca63e92	-0.020293508
228	0xbdb08948	-0.08619934
229	0x3c85b1f6	0.01632021
230	0x3d921da9	0.071345635
231	0x3cdda5d6	0.027056616
232	0xbdd31a3b	-0.103077374
233	0x3d1263f1	0.035739843
234	0xbcca6c0c	-0.024709724
235	0x3dd206ac	0.10255179
236	0xbd278658	-0.040899605
237	0xbdad0d79	-0.08449835
238	0x3c7b6a78	0.015345208
239	0xbdcd086c	-0.10011372
240	0x3dd18031	0.10229529
241	0x3c652359	0.013985478
242	0xbd6d186c	-0.05788462
243	0xbc086c3a	-0.0083265845
244	0xbdc14087	-0.09436136
245	0x3c57ab34	0.013163377
246	0xbdb7d834	-0.08976784
247	0xbc8e6c15	-0.017385522
248	0xbcd9c0c4	-0.026581176
249	0xbd952fd3	-0.07284512
250	0x3da59e48	0.080868304
251	0x3d45114e	0.048112206
252	0xbc22e8f8	-0.009943239
253	0xbb8df8bf	-0.0043326314
254	0xbc415be3	-0.011801693
255	0x3dd0f96d	0.10203824

l2.bias f4 [30]
0	0x3da35d29	0.07976753
1	0xbdd960ad	-0.106141426
2	0xbd46e55a	-0.04855857
3	0xbd18549a	-0.037190057
4	0x3d8ec9dd	0.06972096
5	0x3d11bce0	0.035580516
6	0xbd6e359e	-0.058156602
7	0x3c7ebfe6	0.015548682
8	0x3cf2e56f	0.029650418
9	0xbc54a37e	-0.012978433
10	0x3bf3f503	0.007444979
11	0x3dc9de8c	0.098569006
12	0x3cd5c602	0.026095394
13	0x3da608e1	0.08107162
14	0x3d8ca7db	0.068679534
15	0x3da2e72d	0.079542495
16	0xbdc0e5fa	-0.094188645
17	0xbd6d3add	-0.057917465
18	0xbd974743	-0.07386639
19	0x3bb04b13	0.0053800433
20	0xbdb02e96	-0.086026356
21	0xbc40288c	-0.011728417
22	0x3da042c0	0.078252316
23	0x3bbcd956	0.005763213
24	0x3cf5a5e9	0.029986339
25	0x3d9ee095	0.077576794
26	0x3dd68054	0.104736954
27	0x3d5b050e	0.053471617
28	0x3d50d873	0.050987672
29	0xbdcf0241	-0.10107852

output.weight f4 [1, 30]
0	0x3d9b1905	0.075731315
1	0x3dad343d	0.08457229
2	0x3dc2fd79	0.09521002
3	0xbd4f98bf	-0.05068278
4	0xbca0cdbf	-0.019629357
5	0xbe103d13	-0.14085798
6	0xbd645fb4	-0.055755332
7	0xbddec385	-0.10877136
8	0xbc484a6c	-0.012224775
9	0x3e281164	0.16412884
10	0x3da52fee	0.080657825
11	0x3dd6f18c	0.1049529
12	0x3ddef125	0.108858384
13	0x3d0affdb	0.03393541
14	0x3d5f34cd	0.054493714
15	0x3c943238	0.018090352
16	0x3d4fb964	0.05071391
17	0x3d52c7cc	0.051460072
18	0xbdaeced4	-0.08535543
19	0x3bba41a8	0.0056840964
20	0xbdb0b6a0	-0.08628583
21	0xbc36b216	-0.011150857
22	0xbded6c11	-0.11592878
23	0xbdce2843	-0.10066273
24	0xbde0333d	-0.10947273
25	0xbe200037	-0.15625082
26	0xbde7ee7b	-0.113247834
27	0xbdb9e248	-0.09076363
28	0xbc4d6908	-0.012537248
29	0x3b9ea451	0.0048413654
