Gui_szkolenie_4/torch_z_sets/banknn_model.pt (torch, 2560 bytes, 3 tensors)

l1.weight f4 [11, 11]
0	0xbe270138	-0.16309059
1	0xbe47905b	-0.19488661
2	0x3e575a19	0.21030463
3	0xbe6acfeb	-0.22930877
4	0xbde4c33f	-0.11170053
5	0x3e0957a6	0.13412341
6	0xbe46d520	-0.19417238
7	0x3e362020	0.17785692
8	0x3e5abcb1	0.21361043
9	0x3de5089f	0.11183285
10	0x3dac27b6	0.08406012
11	0x3e13d4e7	0.14436685
12	0x3e4d3eb9	0.20043458
13	0xba19f8f8	-0.0005873586
14	0xbe79ebab	-0.24406306
15	0x3e9c63ac	0.30544794
16	0x3e7dfc86	0.24803361
17	0x3ca89f07	0.020583643
18	0xbe189c15	-0.1490329
19	0xbdb71ac2	-0.089406505
20	0xbe74a6e7	-0.23891793
21	0x3e68a19e	0.22717902
22	0x3b314d48	0.002705412
23	0x3e360ff7	0.17779528
24	0x3e12601c	0.14294475
25	0xbdb7024a	-0.089359835
26	0xbe26b8f1	-0.16281487
27	0x3d99e77b	0.075148545
28	0xbe2780ff	-0.16357802
29	0xbd189abc	-0.03725694
30	0x3e561179	0.20905103
31	0xbe09a4c4	-0.1344176
32	0x3c76e728	0.01506976
33	0xbd78c0ff	-0.06073093
34	0x3d55f021	0.052230958
35	0x3e8ae7f8	0.27130103
36	0x3e4c8246	0.1997157
37	0xbe06ef7c	-0.13177294
38	0x3e8206c2	0.2539578
39	0xbded0723	-0.11573627
40	0x3dd973be	0.10617779
41	0x3ddaf683	0.1069155
42	0xbcddbc46	-0.027067315
43	0xbe98d064	-0.2984649
44	0x3e81df87	0.2536585
45	0xbd2330b3	-0.039841365
46	0x3e345f3c	0.17614454
47	0xbe1b192e	-0.15146324
48	0xbd77a219	-0.060457323
49	0x3e8d66e1	0.27617553
50	0xbe953b2a	-0.291467
51	0xbc93fb98	-0.018064305
52	0xbd0a0ec7	-0.0337055
53	0xbe93278e	-0.28741115
54	0xbdb49c34	-0.08818856
55	0xbe7c7fc4	-0.24658114
56	0x3dc2d39d	0.09513018
57	0x3ce1416e	0.02749702
58	0x3e3e7b9d	0.18601842
59	0xbcb86074	-0.02250693
60	0xbdbb5144	-0.091463596
61	0xbe0e005a	-0.13867322
62	0xbe12035b	-0.14259093
63	0x3e51795f	0.20456456
64	0x3d886b4c	0.0666109
65	0xbea90fff	-0.33020017
66	0x3dab5b98	0.083670795
67	0xbd8fb8b5	-0.07017652
68	0x3e7f9932	0.24960783
69	0xbdf1547a	-0.11783691
70	0x3e960036	0.29297036
71	0x3d8164ba	0.0631804
72	0xbe77891b	-0.24173395
73	0x3dbee299	0.09320564
74	0xbd1fa254	-0.038973168
75	0x3e391216	0.18073305
76	0xbe6a6a3a	-0.22892085
77	0x3bc8921a	0.0061209323
78	0x3e2e8e92	0.17046574
79	0x3dab5e51	0.08367599
80	0x3de6105e	0.112335905
81	0x3e918eed	0.28429356
82	0x3dc1221c	0.09430334
83	0x3e01d368	0.12678301
84	0x3dbabf43	0.091185115
85	0x3d47bc65	0.04876365
86	0x3e9534dd	0.29141894
87	0xbd26741e	-0.04063808
88	0x3c25300d	0.010082257
89	0x3d0c17c8	0.034202367
90	0xbd5ae2a6	-0.053438805
91	0x3e444c9e	0.19169852
92	0xbc54f93e	-0.012998877
93	0xbe67ec7f	-0.2264881
94	0x3e32b2ce	0.17451021
95	0xbe04d872	-0.12973192
96	0xba0b2980	-0.0005308613
97	0xbe9b525e	-0.3033628
98	0x3db79233	0.08963432
99	0xbe363ba7	-0.17796193
100	0xbb891764	-0.0041836966
101	0x3e6a6d4a	0.22893253
102	0x3dd0530e	0.101720914
103	0x3e62c28a	0.22144523
104	0xbe08a4f3	-0.13344173
105	0xbe9ef910	-0.31049395
106	0xbe8aec86	-0.27133578
107	0xbe0876fa	-0.13326636
108	0xbdfda5bd	-0.12385128
109	0xbd4ea3e9	-0.050449286
110	0x3e11f538	0.142537
111	0x3e95f98e	0.29291958
112	0xbe88185e	-0.2658109
113	0xbe149f14	-0.14513808
114	0x3e6acbc3	0.22929291
115	0xbca76c14	-0.020437278
116	0xbdeb9876	-0.11503689
117	0xbea71b56	-0.32638043
118	0xbda25222	-0.07925822
119	0xbe988409	-0.29788235
120	0x3e66db36	0.2254456

l1.bias f4 [11]
0	0xbdddde43	-0.10833409
1	0xbd869896	-0.06572072
2	0x3db01df5	0.08599464
3	0x3df3da1f	0.11906838
4	0x3e6f387e	0.23361394
5	0xbda5de60	-0.08099055
6	0xbe47eaed	-0.19523211
7	0x3e95b2e4	0.29238045
8	0xbdc04e51	-0.09389938
9	0x3da42728	0.08015281
10	0xbe8421ca	-0.2580703

output.weight f4 [1, 11]
0	0xbe648979	-0.22318067
1	0x3be5c88c	0.0070124324
2	0xbd90f9e3	-0.07078912
3	0xbc8309f8	-0.015995964
4	0x3dae36f3	0.085065745
5	0x3d741b20	0.05959618
6	0xbdcf2e3a	-0.10116239
7	0xbd17f538	-0.037099093
8	0x3e86afd3	0.26306018
9	0x3e968ef3	0.29405937
10	0x3e9018d8	0.28143954
