Gui_szkolenie_4/torch_z_sets/banknn_model4.pt (torch, 3460 bytes, 5 tensors)

l1.weight f4 [12, 12]
000000 55 dc 59 3e 17 52 e2 bd 72 be 60 3e ca bd 06 bb
       0.21275456 -0.11050814 0.21947649 -0.00205599
000010 64 41 01 be 83 f5 66 be 6f 0d 46 3e 69 95 aa 3d
       -0.12622601 -0.22554593 0.19341062 0.08329279
000020 ba 5f 8e be ee 47 82 3c d0 6b 82 3e ae 17 8a 3e
       -0.2780741 0.01590344 0.2547288 0.2697119
000030 38 42 f2 3d 6e ac c0 3c 6c c7 e4 3c ed 70 c0 3e
       0.118290365 0.02351972 0.027927123 0.37586156
000040 b6 8e 7e 3d ab 4c c8 bd 9a ee 9f 3e a5 60 97 be
       0.06214782 -0.09780248 0.31236726 -0.2956592
000050 55 39 11 3d e7 87 2a be 00 08 cc bd 23 06 c5 be
       0.035455067 -0.16653405 -0.099624634 -0.38481244
000060 30 03 00 bc ff c0 27 3e d0 c6 76 bd 6a 6f 89 bd
       -0.00781326 0.16382216 -0.060248196 -0.06710704
000070 12 6f b9 be d8 2b 0a bd d6 62 7d 3e 3c ec 84 bc
       -0.36217552 -0.03373322 0.24744734 -0.016225927
000080 83 52 b6 be 88 41 6e bd db 11 ab bd ab fd fc bd
       -0.35609826 -0.058167964 -0.08353015 -0.12353071
000090 cb ba 65 3e b6 2c 5d 3d a8 8d 8d be be b3 8e 3d
       0.22434537 0.053997718 -0.27647138 0.06967877
0000a0 ae eb 1b 3e e5 6a 73 be a3 76 2a 3d 8d a7 14 3e
       0.15226623 -0.23771246 0.041617047 0.1451704
0000b0 60 e8 80 3e b0 55 56 3e dd 73 36 3e e7 74 63 bc
       0.25177288 0.20931125 0.17817636 -0.013882852
0000c0 2c 0f 81 3c f4 42 9a bd 86 b9 a8 3e 39 c5 d3 bc
       0.015754305 -0.075323015 0.32954043 -0.025850879
0000d0 ee 67 0b 3e 70 f2 b5 3e a4 09 7a 3e e6 6f 31 ba
       0.13613865 0.35536528 0.2441774 -0.00067686883
0000e0 62 d3 1f bd b3 22 7c 3e 10 8e 0f be 30 90 09 3e
       -0.03901995 0.24622612 -0.14019036 0.1343391
0000f0 e7 5a 88 3c 1a 23 ee be f1 ce 30 be d3 1e 46 be
       0.016644908 -0.46511155 -0.17266442 -0.19347696
000100 2a 24 15 3e f6 10 0f bd fe 85 c1 bd 43 87 98 3e
       0.14564577 -0.034928285 -0.09449385 0.29790697
000110 1d 6a 8c 3e b9 4a a2 3e 24 63 56 3e 71 b8 bd 3e
       0.27424708 0.31697634 0.20936257 0.3705478
000120 b5 f6 ad 3c 4e af ab bc 69 a4 f8 3d 6c 4f 3c bd
       0.021235803 -0.020957615 0.12140734 -0.04597418
000130 89 b2 70 bd 50 b1 0f be 64 73 2b 3e e0 90 9f 3d
       -0.058764014 -0.14032483 0.16743237 0.077913046
000140 9f 1d c8 bd f1 5e f0 3d 73 d3 27 bc 8e 87 90 be
       -0.09771275 0.11736859 -0.0102432845 -0.2822842
000150 aa 8e ae bc b9 29 a2 3e b0 c4 a6 3c 00 1b 05 be
       -0.021308262 0.31672457 0.02035746 -0.12998581
000160 fe fc c8 be 72 16 d2 3c 8d 96 91 3e b2 d3 8d be
       -0.39255518 0.025645468 0.28435174 -0.27700573
000170 37 c2 16 3e c2 7a b8 be 48 bd 0a 3e 4c 1d 9b bd
       0.14722525 -0.36031157 0.13548768 -0.07573947
000180 86 63 0c 3e e7 04 60 bd 17 8d 49 3e e4 29 5b bd
       0.1370984 -0.054692175 0.19682728 -0.053506747
000190 5a a1 41 3d 47 8a 24 be 4b 70 d5 bd 10 c8 9b 3e
       0.047273017 -0.16068374 -0.10421809 0.30426073
0001a0 3e 1e 8c 3e c7 80 a2 3d e6 28 82 bd c8 de 58 3d
       0.27366823 0.079347186 -0.06355457 0.052946836
0001b0 68 6d a8 bc a2 34 4e 3e bd 9c d9 bd f4 5f 03 3d
       -0.020559981 0.20137265 -0.106255986 0.03207393
0001c0 b1 6a 23 3e 6b 41 00 be 5c b0 88 bc 00 36 cc bd
       0.15958668 -0.12524955 -0.016685657 -0.09971237
0001d0 98 1f 9e be 0c 2f 8c bc 08 43 59 be df b9 77 be
       -0.3088348 -0.017112277 -0.21216977 -0.24191998
0001e0 55 23 af bd 23 5c 99 be 9a 16 47 3e d6 1f dc 3d
       -0.08551661 -0.29953107 0.19442216 0.1074826
0001f0 7e de 1e bd cf e0 16 be 3d 49 94 3d 70 75 36 3d
       -0.038786404 -0.14734195 0.072405316 0.04454559
000200 2f aa 57 3d cd 65 93 be 6c d2 63 3e bd 1a 54 bd
       0.052652534 -0.28788605 0.22248238 -0.051783312
000210 f7 60 16 3e fb 0b 72 3e 30 20 5c 3d d9 b5 09 be
       0.14685427 0.23637383 0.053741634 -0.13448276
000220 a2 0e 94 be 56 f2 ca 3c 49 10 2c be 99 85 ab bc
       -0.28917414 0.024773758 -0.16803087 -0.020937728
000230 f4 1e 68 be ee a6 97 bc 60 0f 5d 3b 52 03 58 be
       -0.22668058 -0.018512215 0.0033731088 -0.21095017

l1.bias f4 [12]
000000 1d 9b 84 be 65 ad 5f be 7b 31 22 be 14 c4 b7 bd
       -0.25899592 -0.21843489 -0.15839188 -0.08972946
000010 50 a6 84 3e 68 26 c7 3e bb 91 1f bd 02 0c b2 be
       0.25908136 0.3889649 -0.03895734 -0.34774786
000020 c3 12 24 3e 46 e8 09 be ad 9f 19 3e 47 08 0f 3d
       0.16022782 -0.13467512 0.15002318 0.034920003

l2.weight f4 [6, 12]
000000 2d 14 de ba 41 6c d8 bd ad 22 8e 3d dd 02 92 3e
       -0.0016943269 -0.10567523 0.06940208 0.2851781
000010 2f ac c6 3e 31 a5 cc bd 3a f5 eb bc db 15 86 be
       0.3880324 -0.09992445 -0.028803457 -0.2618855
000020 12 41 b3 3e d4 a7 1b be c0 fe c4 3d d3 01 a8 be
       0.35010582 -0.1520074 0.09618902 -0.32813892
000030 9e c6 78 bb a5 28 25 be e6 c2 58 be ec 21 05 be
       -0.0037960182 -0.16128786 -0.21168098 -0.13001221
000040 cc df 8c bd ae 85 d7 3e 68 84 04 be 0e e0 e9 be
       -0.06878623 0.42094177 -0.12941134 -0.45678753
000050 9e b9 1d 3e 01 50 6b bd 08 0d 07 3e 02 cd 45 3b
       0.15402839 -0.057449345 0.13188565 0.0030182009
000060 e7 7a 1c 3e aa c5 98 be c8 64 c1 be ec c3 97 3e
       0.15281259 -0.29838306 -0.37772202 0.29641664
000070 d7 ce 17 be aa de cc bd cc b0 bd bd b4 e7 9c 3c
       -0.14824997 -0.10003407 -0.09262237 0.019153453
000080 74 e1 03 3e a2 57 3f be 03 c8 c3 3d da ad 30 3e
       0.12878972 -0.18685773 0.095596336 0.17253819
000090 ca 58 82 3d 62 3b 11 be 45 ca 06 3e 5e 54 08 3e
       0.063645914 -0.14182809 0.13163097 0.13313434
0000a0 16 01 0a 3e 15 88 9a be b5 65 b1 3c 4e cd bf 3e
       0.13476977 -0.30181947 0.021654943 0.37461323
0000b0 c9 43 8e bd d8 ee 72 3e 9f 7b ca 3c e4 55 29 3e
       -0.06946523 0.23723924 0.02471715 0.16536671
0000c0 26 f6 b1 3d cc 05 57 be 40 aa 09 be d8 54 5a 3d
       0.08689527 -0.20998305 -0.13443851 0.05330357
0000d0 94 21 18 3e 45 12 ba 3e f2 8b 42 3d f5 66 9d bd
       0.14856559 0.36342064 0.047496744 -0.07685653
0000e0 50 ce a6 3c 7e 03 60 be f2 91 1f be fb 8d a0 be
       0.02036205 -0.21876332 -0.15583017 -0.31358323
0000f0 b0 2f e4 3d 06 59 4f 3e d1 4e ab 3e 44 1a 1b be
       0.11141908 0.20248803 0.3345857 -0.15146738
000100 aa 4c af be 30 f0 aa be 87 7e 72 3e 2d 35 84 3e
       -0.34238178 -0.33386374 0.23681079 0.2582182
000110 4d c0 b8 be 99 b4 96 3d b8 38 69 be 90 88 dd 3d
       -0.36084214 0.07358665 -0.22775543 0.10817063

l2.bias f4 [6]
000000 b9 6e 92 3e 60 2a 5b 3e 99 d9 8a 3e 81 22 2c be
       0.286001 0.21402884 0.2711914 -0.16810037
000010 f4 1c be 3d 39 24 7b be
       0.09282866 -0.24525537

output.weight f4 [1, 6]
000000 00 80 fb be d1 b6 28 be fe b2 c9 be f6 43 cf 3e
       -0.49121094 -0.16475989 -0.39394373 0.40481538
000010 a6 be c6 be fa 12 07 3f
       -0.38817328 0.5276333
