Gui_szkolenie_4/torch_z_sets/banknn_model0.pt (torch, 40644 bytes, 5 tensors)

l1.weight f4 [87, 87]
00000000: 6a3f 8abd b9cc 8dbd 9d74 993d c6e7 75bd
00000010: 6e6c 24bd a475 8d3d b4ff 8dbd 0f99 7e3d
00000020: 9450 633d 5efd 993c 9df8 213c 587e 033d
00000030: 5703 a63d 2fd1 0e3c e2f1 b2bd c28f b53d
00000040: fe7d 9f3d a2cc 22bb eb20 95bd a38c 56bd
00000050: ca19 d8bd 1680 913d 7c95 a0bc 7125 833d
00000060: 9e95 f43c 1633 03bd be66 8cbd 4697 de3c
00000070: a61d a3bd 530e 0ebd 2d55 593d 2ce7 8cbd
00000080: c4da 7cbc 9c84 c1bc 606e bc3a 4eb1 bd3d
00000090: 93fc 803d a54c 51bd 6371 b03d c4f7 3abd
000000a0: 5570 083d 638f 103d a4e9 66bc 560a e2bd
000000b0: cf0d cf3d 15dc 11bd c7a9 833d 86c3 99bd
000000c0: 168c b2bc 93a8 a93d aebd d4bd 95d4 d3bb
000000d0: dcc0 8eba afdf d1bd 4696 f1bc 6e55 dfbd
000000e0: 63ab 493c 1ce9 933c 37b8 513d fcea 05bc
000000f0: 4349 5dbd 1a54 1ebd 76f2 23bd 47d0 aa3d
00000100: 22ba 0c3d a2d8 f0bd 9c03 9d3c e889 6abc
00000110: 4d2e a03d 9072 00bd 55a6 bf3d 46b2 073d
00000120: b5d3 c5bd 3d4f 4b3c 45b3 10bd fd5c 2f3d
00000130: ea75 bcbd 8080 00bc cb1c 913d 86f1 ec3c
00000140: cb31 223d 8c30 a43d 6b94 343d ce77 c43c
00000150: cc4c 5b3c 44d8 73bb 5edf a83d a4ee 60bc
00000160: 7348 cb3c 8644 12bc 98f7 25bd e90a b53d
00000170: 02a5 99bb 7dd7 cfbd 14b8 813d 245c d5bc
00000180: 341f a93c 7070 b3bd b094 553d ea16 93bd
00000190: 46a4 42bc 07d6 cf3d a01c 133d 63e6 b83d
000001a0: d3d5 6dbd d4df b7bd 989a 99bd e514 d4bc
000001b0: f3a9 06bd 10f7 3f3b 6165 923d 92d2 d43d
000001c0: 6e81 c1bd 2390 7ebd 7c24 d13d f4cd e6bb
000001d0: 4dfd 9ebc fc08 c2bd 0468 edbb 1ee3 aebd
000001e0: f509 cb3d bf37 1dbd 0296 babc 7335 8e3c
000001f0: 54d9 733d 62e5 d33d 82b1 f0bb 96b5 8dbd
00000200: e9dc d03d 7b4b 43bc 03a1 4a3d c17d abbd
00000210: ca01 6dbd 3823 e93a 0c0a cbbc 167b 6f3c
00000220: 838d 473d aaaf ae3c a818 14bd 746a a8bb
00000230: 64db bf3d 5075 d43d 022a cd3d 5d74 a73d
00000240: 344e 713d b408 ee3d 93e2 b5bd 9435 aabd
00000250: b91d 833d 6b11 d33d 8c4c 9bbd b634 443d
00000260: 8070 37bd 903b 9fbc 8312 d03d dc79 81bd
00000270: 6e20 533d 4f0f a13d 56ab 543d 69b7 95bd
00000280: 8396 2f3d e91b b0bd 8c0a 36bd d914 7fbd
00000290: ed63 953d f4f2 cd3c 4b6b e43d 5741 a43d
000002a0: 560d b6bc 8f78 ce3d c63f 78bd 54a8 bdbc
000002b0: 8438 8cbc f194 5b3d dc77 0fbd fc02 99bd
000002c0: f231 623d 3b0b 9f3d 23ab 643d a02c 4b3d
000002d0: 8fc4 36bd bd42 3ebd 94ea acbd 12c3 513c
000002e0: 2e2b a13d 9b04 853d 16dd bc3d 5531 aabd
000002f0: 3442 abbd 3c14 773d 5cd4 d73d 0908 14bd
00000300: 7dad ef3c 699f 2a3d 78ec 883d 51d9 823c
00000310: 5877 a7bd 6bb7 13bc c22e 873d 317c bb3b
00000320: b3f4 9ebd 9a09 6bbd f644 c8bc e429 ba3d
00000330: 6419 e43c 726e b93d 0874 a93c 2adb 983d
00000340: fa17 ad3c c51c ac3d ce3f bc3d 2368 a1bd
00000350: 8c63 8fbd 7d9a eebc 4c90 033c 2508 d1bc
00000360: 0767 a6bd ac8d 413c b20a 8e3d 79b3 99bd
00000370: 7778 073d 12e9 6ebd 93af 823d 2210 dfbb
00000380: b2f3 b33d a61d 873d cd4d 9fbd 808a ce3d
00000390: db7d b1bd e04d 0b3a e564 8b3d 8d9c 243d
000003a0: b660 96bd b6a1 9e3c b352 00bd 58ab debc
000003b0: 5d7f b9bd fac8 0a3d 5b6e b03d 9126 6a3d
000003c0: 0edf 1c3d bfc6 88bd c08a 80bd 1084 2f3c
000003d0: 7e31 1a3d 74e2 87bd 6d1d cfbd d56d 923b
000003e0: c212 81bc 41ec 4c3d 0072 aa3b 38fa 8bbd
000003f0: a0e8 f0bc 6833 7ebc 2e2f aebd b012 913d
-0.067503765 -0.069238134 0.07492945 -0.06003549 -0.04014247 0.06907204 -0.06933537 0.062157687
0.055496767 0.018797573 0.009885934 0.032102913 0.08106106 0.008716865 -0.08737542 0.0886531
0.07787703 -0.002484121 -0.07281669 -0.052380215 -0.10551794 0.071045086 -0.01960253 0.06403626
0.0298565 -0.03203114 -0.06855534 0.027171742 -0.07964639 -0.03468163 0.053059746 -0.0688003
-0.015433017 -0.023622803 0.0014376156 0.09262334 0.06298175 -0.051098485 0.08615377 -0.045646444
0.033310253 0.035292994 -0.01409379 -0.11037128 0.10110056 -0.035610277 0.06428867 -0.07507996
-0.021795314 0.08284106 -0.10387741 -0.0064645507 -0.0010891217 -0.102477424 -0.029490601 -0.10904966
0.012308928 0.018055491 0.05120107 -0.0081737 -0.054024946 -0.038654424 -0.04002615 0.08340507
0.034357198 -0.117600694 0.01916676 -0.014315106 0.07821331 -0.031359255 0.09357897 0.033129
-0.096595205 0.012409029 -0.035327215 0.04281329 -0.09202178 -0.007843137 0.0708557 0.028923761
0.039598268 0.08017072 0.044086855 0.023982909 0.013385009 -0.0037207762 0.08245729 -0.013728771
0.02481482 -0.00892747 -0.040519327 0.088399716 -0.00468886 -0.10148523 0.06333938 -0.026044913
0.020644762 -0.0876168 0.052143753 -0.07182105 -0.011879986 0.10148244 0.03591597 0.09028318
-0.058065247 -0.08978239 -0.075001895 -0.02588887 -0.03287692 0.0029291548 0.07148243 0.103917256
-0.09448515 -0.06214918 0.10212037 -0.0070435945 -0.019407893 -0.0947437 -0.0072450656 -0.08539413
0.099140085 -0.03838324 -0.022776607 0.017359471 0.059533432 0.10346486 -0.0073453793 -0.069194004
0.10198385 -0.011919851 0.04946996 -0.08373595 -0.057863034 0.0017786985 -0.024785064 0.014616748
0.04871894 0.021323998 -0.036156327 -0.0051396433 0.09368017 0.10373938 0.10017778 0.081764914
0.05891247 0.11622754 -0.08881106 -0.083110005 0.064021535 0.103060566 -0.075829595 0.04790183
-0.044785023 -0.019437581 0.10159781 -0.06322071 0.0515446 0.07864248 0.05192121 -0.07310373
0.04286815 -0.085990734 -0.044443652 -0.06227574 0.0729445 0.025140263 0.11153277 0.08020275
-0.022223156 0.100815885 -0.060607694 -0.023151554 -0.017116793 0.05360884 -0.035026416 -0.07471272
0.055223413 0.07765814 0.05582727 0.049603105 -0.044621047 -0.046450365 -0.0844318 0.012802856
0.07869564 0.06495019 0.09221856 -0.083101906 -0.083622366 0.06032203 0.10538551 -0.036140475
0.02925753 0.04165593 0.06685728 0.015972765 -0.0817706 -0.009015898 0.06600715 0.005721592
-0.077615164 -0.057382204 -0.024446946 0.09090021 0.027844138 0.09054269 0.02068521 0.07463677
0.021129597 0.08403925 0.09191857 -0.07881191 -0.07001409 -0.0291264 0.0080300085 -0.025516579
-0.0812512 0.011813562 0.06935634 -0.07504935 0.03307387 -0.058327742 0.063811444 -0.006807343
0.087867156 0.06597452 -0.07778511 0.100850105 -0.08666583 0.00053140335 0.068063535 0.04018836
-0.07342665 0.01936422 -0.031328868 -0.027181312 -0.09057496 0.033883072 0.08614799 0.057165686
0.03829866 -0.06678533 -0.062764645 0.0107126385 0.037644856 -0.066349894 -0.101130344 0.0044686594
-0.015756015 0.050029997 0.005201578 -0.06834835 -0.0294078 -0.015515186 -0.085050926 0.070836425

l1.bias f4 [87]
00000000: bad8 bcbd 5802 2bbd d0ef a03d e444 163d
00000010: 0848 b5bd c22b 80bc 2e1d 8c3b 8fd2 763d
00000020: 77ec 9b3d a32f 30bd 8647 39bd 0688 c8bc
00000030: 42a3 ebbd 0dd2 413d 7e57 1cbd 6a70 2abd
00000040: 311a cbbd 8d3d ca3d 3995 23bc 9788 2b3d
00000050: 0078 85bd 4b3a 91bd 168f 7a3d 61d0 81bd
00000060: 4ca3 e9bc 3ef5 233d e69d 3c3d ac92 fabc
00000070: dc81 803d 0c4f 74bd b998 ab3d de49 b93d
00000080: e69c b8bd e60b 3c3d 4d66 643d 7aec 8e3d
00000090: c9eb eebd 1ae4 dabc fa93 fbbc 741a 7c3d
000000a0: fae5 3a3d fdf4 bd3d 39eb 36bd 6042 7e3d
000000b0: d21e bbbc 6a02 63bd 4a8c 803d cfa5 ebbd
000000c0: 2ec6 e53c 1e50 00bc 8782 8fbd 417d b63d
000000d0: b1d7 b8bd 238c b4bd fe47 403d cc1b 7abb
000000e0: 32b4 9b3d efa5 ccbd 651e afbd 6ffb b83d
000000f0: 3e7a 903c 644d 623c f2f0 9e3c 024e 48bd
00000100: 4c49 69bc 32af 25bd c109 023d d86a 69bd
00000110: bd75 0c3d b0a7 a93c 0d35 45bd 3073 49bd
00000120: d5c4 95bd 435c cf3d 2ab2 7bbd eb1b 5ebd
00000130: be5c 2c3d 045e 9fbd 1cbb bd3d f17a d03d
00000140: 1cdb bebc f252 67bb 8c8a a03c 611a 8bbc
00000150: 98f9 28bb b022 5eba e161 d3bd
-0.09221025 -0.041750282 0.078582406 0.036686793 -0.088516295 -0.015645865 0.0042759394 0.060259398
0.076134615 -0.04301418 -0.045234226 -0.024478924 -0.11505748 0.04731946 -0.038169377 -0.041611113
-0.09917105 0.09875021 -0.009984308 0.04187831 -0.06517029 -0.070911966 0.061171614 -0.06338573
-0.028520249 0.040028803 0.04604902 -0.030587517 0.06274769 -0.059645697 0.08378739 0.09047292
-0.09014301 0.045909785 0.055761624 0.06978698 -0.11666066 -0.026720095 -0.03071021 0.061548665
0.04562948 0.092752434 -0.04465792 0.06207502 -0.022841845 -0.055422224 0.06276758 -0.11506235
0.028048601 -0.007831601 -0.07007318 0.08910609 -0.09025515 -0.088157915 0.046943657 -0.003816354
0.07602729 -0.09992587 -0.08550719 0.09032332 0.017636415 0.013812397 0.019402001 -0.04890252
-0.014238667 -0.040450282 0.031747583 -0.05698666 0.03429197 0.020709842 -0.048146296 -0.049182117
-0.07312933 0.101250194 -0.061449207 -0.054225843 0.042080633 -0.07781604 0.09264204 0.10179699
-0.023297839 -0.0035297242 0.019597314 -0.016980352 -0.0025783535 -0.0008473797 -0.10321403

l2.weight f4 [21, 87]
00000000: b990 e13d c8c5 22bc 120f 40bd ba33 963c
00000010: 889c 83bd 4a88 bdbd a53a 973d 55e8 ba3d
00000020: 404e 84bd 9377 a7bc bdc1 6d3d fc96 873d
00000030: ca3f 19bd aa2b 55bd b6f5 9d3d 16a9 8ebc
00000040: 2589 413c 3403 2c3d 8eb4 9c3d b629 dc3c
00000050: 4add 3abd 209a 8ebd 4483 0e3d 8c42 71bd
00000060: 7f46 c13d 6815 4d3d 6af8 e23d 045c f13c
00000070: 2eec c3bd 8861 b23b f49d b43d 6475 e9bd
00000080: 0de3 5f3d eb54 cebd 0d83 8fbd a430 e8bd
00000090: cd32 9fbc b446 9a3d fc2d f4bb 7a51 edbc
000000a0: bbed 603d 9892 cebc 0b12 a83d 979d e03c
000000b0: a0a8 e3bc 009a 2bbd 2d27 afbd 689f fcbc
000000c0: ea19 18bd 0dea 473d 1206 d63b 9402 7cbc
000000d0: 09d4 2cbc 29fe b2bd f061 3a3c 963d 63bd
000000e0: b74f 3c3d fc54 7b3b c681 643d 20c0 113d
000000f0: b2d2 bf3d b024 843d ae0b 043d eaea 03bc
00000100: 44d4 e53d 4291 bebd fa96 63bd 52e6 ca3d
00000110: fd90 ad3d 644b c8bd ec21 6ebd 1ca2 473d
00000120: 566f 39bc 14f0 363c 6a60 b4bd 635e 43bd
00000130: d7be 62bd 104a 1fba 3bd6 4a3d 4129 49bc
00000140: 7684 0cbd 1af3 463d 2054 763d d3cf 973d
00000150: f13e 92bd 780e 14bd 17a7 9d3d bc56 bd3d
00000160: b031 a4bd 74f8 30bd c009 083d cbed aa3d
00000170: 0740 e5bd 2992 88bd 50cf 433b f883 29bd
00000180: c43d 16bd 6859 c43c 0d83 823d bb69 013c
00000190: 5170 eabd a90e ea3d a67c 78bd 48e1 bdbd
000001a0: 8009 ccbd 006d 0bbb 609b b6bc ab40 4ebc
000001b0: 24bb c43b 25e7 00bd 03cb 50bd a8c5 ee3d
000001c0: fede 03bd 545e b3bd bae0 13bd 37c4 9fbd
000001d0: 7eb3 bbbd d291 81bd 73ce 3bbd be21 ddbd
000001e0: d8ec 68bd 7393 0dbd c241 c23d fc2f 66bd
000001f0: 9a62 6d3d f7a7 e2bd ba1c 65bd cad3 b03d
00000200: bc45 9e3c 38e8 1c3d c25d 243d 4349 eebc
00000210: e90d 8cbd d687 bd3d db6e ac3d 8d9b 433d
00000220: 7531 d9bd 6696 7cbd 348b 3e3d aee7 a5bc
00000230: b6a2 9a3c 28fc 54bd 289a a93d 4cd2 b2bc
00000240: ee68 8a3d 13e8 e6bd 0206 2b3d 39ba 8d3d
00000250: c34f 253d 0820 2bbd ac1f a6bd 5d82 f33c
00000260: 5c9f 843d d557 aabd 3ebf 62bd 0bbc 95bc
00000270: 5a33 423d e68d d13d 867b bbbd 6c42 95bd
00000280: 3631 9fbd 2ecd 89bd 3729 493d 5f68 e13c
00000290: 3c22 89bc c63c 91bd 9919 e53d 441b 4dbc
000002a0: f81c 4bbd f4d1 b7bb 310a 3f3d 9fa0 ac3d
000002b0: ce85 c7bd e2c3 763d 7516 b83d 46a7 2fbd
000002c0: 49a6 df3d 9bb6 663d 62c3 383d 73ac b7bc
000002d0: 8730 6ebd 447d c0bc c04c cc3d ed02 b73d
000002e0: 4365 83bd 7ee3 0c3d 8354 abbd 289d a2ba
000002f0: 567c 003d 089e 9ebc 7afe 94bd 54ae 4d3d
00000300: 0ec0 b13d c88e c03d 9596 a43d 05e5 2abc
00000310: 74d1 813c ebd6 803d a5f2 2d3d 1b9f bb3d
00000320: b094 df3c ae49 bcbd 7dd5 d6bd 6651 1a3d
00000330: a63b a0bd 3e5e 3abc 8340 a7bd 8c3d c0bd
00000340: 1bc4 c4bd 0523 533d d61e 86bd ac7c bdbd
00000350: d260 303d a652 513d 5b5a 66bd e473 f1bd
00000360: 9491 1e3d 76f0 893c 93e8 e0bd 1da4 b5bb
00000370: 65d0 e1bc bdaa dbbc fe3a 99bd 3242 09bc
00000380: c26d bdbc e8be a23d 651a edbd 22f6 943d
00000390: c22a 48bd e21f f83c 88f8 8dbc 4073 8c3d
000003a0: 937b 803d 3085 4f3d c0cd 9f3d 812f d2bb
000003b0: f861 a5bd 7847 8dbd 636a b8bd 67bf e73d
000003c0: 4336 d13d 1a91 a1bd de9d 0e3d e7a2 3d3d
000003d0: c631 80bd 5a9f e83c c347 403c 08c8 923c
000003e0: eb8d db3b 12a2 f23c e45e e43d 6c73 1a3c
000003f0: bc40 383c 6f17 82bc 8421 7a3d 488e 91ba
0.11013932 -0.00993485 -0.046889372 0.018335212 -0.0642634 -0.09254511 0.073842324 0.09126345
-0.064602375 -0.02044276 0.05804609 0.06620595 -0.03741435 -0.052043594 0.07712881 -0.01741461
0.011812483 0.041995242 0.076516256 0.026875358 -0.045621194 -0.06962991 0.034793153 -0.058901355
0.09437274 0.050069243 0.110825375 0.029462822 -0.09566532 0.0054437555 0.0881919 -0.113993436
0.054659892 -0.100747906 -0.07007418 -0.113374025 -0.019433403 0.07533017 -0.007451771 -0.028969515
0.054914217 -0.025216386 0.082065664 0.027418895 -0.027790368 -0.041894913 -0.08552394 -0.03083773
-0.03713409 0.048807193 0.0065314854 -0.015381474 -0.0105486 -0.087398835 0.011375889 -0.055478655
0.04597446 0.0038350215 0.055787824 0.035583615 0.09366359 0.0645231 0.0322377 -0.008051613
0.11222127 -0.093050495 -0.055563904 0.09907211 0.0847492 -0.097800046 -0.05813782 0.048738584
-0.011318048 0.0111656375 -0.08807452 -0.047697436 -0.05535778 -0.0006076405 0.049520712 -0.012277902
-0.034306012 0.048571683 0.06013882 0.07412686 -0.07140911 -0.03614661 0.076978855 0.09245059
-0.0801729 -0.043205693 0.033212423 0.08346137 -0.11193853 -0.06668503 0.0029878207 -0.04138562
-0.036679998 0.023968413 0.06372652 0.007898743 -0.11447204 0.114285775 -0.06066575 -0.092714846
-0.099627495 -0.0021274686 -0.022290885 -0.01258866 0.006003754 -0.031470437 -0.050974857 0.11658794
-0.032195084 -0.08758226 -0.036102988 -0.07801097 -0.09165095 -0.06326641 -0.045851182 -0.107974514
-0.056866497 -0.034564447 0.094851986 -0.056198105 0.057955362 -0.11067193 -0.0559356 0.086341456
0.019320361 0.0383074 0.040128477 -0.029087668 -0.06838591 0.09254424 0.084195815 0.047755767
-0.10605136 -0.06166687 0.046519473 -0.020252075 0.018876415 -0.051998287 0.08281356 -0.021828793
0.06758295 -0.112747334 0.041753776 0.06920285 0.04035927 -0.041778594 -0.0811151 0.029725248
0.06475708 -0.08317534 -0.055358164 -0.018278142 0.047412254 0.10232143 -0.091544196 -0.072880596
-0.07773058 -0.06728588 0.04911157 0.027515588 -0.016739957 -0.0709167 0.11186523 -0.012518708
-0.049588174 -0.005609745 0.04664058 0.084290735 -0.09742318 0.060245402 0.08988658 -0.042884134
0.10920388 0.05632649 0.045108207 -0.022421097 -0.058151748 -0.023497231 0.099755764 0.08936105
-0.064157985 0.03439664 -0.08365729 -0.0012406455 0.031368576 -0.019362465 -0.072751 0.05021508
0.0867921 0.09402233 0.08036534 -0.010430579 0.015846945 0.06290992 0.042467732 0.09161206
0.02729258 -0.09193741 -0.104899384 0.037675284 -0.07823877 -0.011375008 -0.081666015 -0.09386739
-0.09607717 0.05154707 -0.0654885 -0.09252295 0.043061085 0.05110421 -0.056238513 -0.117896825
0.038713053 0.016838294 -0.1098186 -0.0055432455 -0.02756519 -0.026814813 -0.07481955 -0.008377599
-0.023123626 0.07946569 -0.115773 0.072735086 -0.048868902 0.03028864 -0.017330423 0.0685792
0.0627357 0.050664127 0.078029156 -0.0064143543 -0.08075327 -0.06898397 -0.09004667 0.11315804
0.10215428 -0.07889004 0.034818523 0.046297934 -0.062594935 0.028396297 0.011735859 0.017917648
0.0067002675 0.029618297 0.111509115 0.009426933 0.011245903 -0.015880315 0.06106712 -0.0011105025

l2.bias f4 [21]
00000000: ca06 2bbd 367c a83d 49c2 b6bd 8a8d b83c
00000010: 348a 573d ff42 f6bc 088d 213d c8f1 f83c
00000020: 1b93 6b3d 45cc d03d b48e 91bd 01b6 263d
00000030: d290 a4bd 81ae d13d 1a17 aabb a4c0 90bc
00000040: 5775 813c fc5c 893d 7654 9fbd 4b63 b6bd
00000050: 3e74 993c
-0.04175452 0.08226816 -0.08923776 0.022528429 0.052622035 -0.030061243 0.03944114 0.030388728
0.057513338 0.10195211 -0.071072966 0.040700916 -0.08035435 0.10238362 -0.005190742 -0.017669983
0.015803022 0.067071885 -0.077797815 -0.089056574 0.018732186

output.weight f4 [1, 21]
00000000: bd86 473e ecc8 81bd 486f 90bb 71f5 ddbd
00000010: 3cc3 c4bc 2e37 3d3d 7073 17be 6673 30be
00000020: 7a3e 1cbe 716e 03be 16c0 533d 5aae 6bbb
00000030: d254 3d3c 67d6 fcbd 887d 463e 8e85 e73d
00000040: 65cc d43d c2e3 1d3c 285e ac3d 9772 bfbd
00000050: 7f47 1cbe
0.19484992 -0.06337151 -0.004407797 -0.1083783 -0.024018876 0.0461952 -0.1479013 -0.17231521
-0.15258208 -0.12835099 0.05169686 -0.0035962076 0.011555867 -0.123455815 0.19383824 0.113047704
0.10390548 0.009636821 0.084163964 -0.09348028 -0.15261649
