Gui_szkolenie_4/torch_z_sets/hearmodel.pt (torch, 3878 bytes, 5 tensors)

l1.weight f4 [13, 13]
00000000: 70cd 39be 80c4 cdbd c961 cd3d 0b7b 6ebe
00000010: 6183 21be f1d7 ac3d 2d3e 84be d86e a33d
00000020: a1e5 d03d be9f 113c 009a 8cbc 70af 243d
00000030: 17db 123e 26eb 623d e847 2dbe c867 5d3e
00000040: e4be 2e3e 53f0 3f3d fba1 66be 3891 37bd
00000050: d40e 38be 2c31 013e f866 92bd 5ead 0a3e
00000060: f16f 2c3e 42a8 ddbd 2536 7abe d1ea 263e
00000070: 0a02 67be 5f02 f7bd 50e4 6d3e c718 5fbe
00000080: cc71 a6bd 927d d6bd d185 01bd ec12 4e3e
00000090: c762 c23d 5fc6 2ebe a936 363e 8f95 d4bc
000000a0: 885a 403d 0454 1f3e 4090 4a3d d692 a6be
000000b0: 3377 a73e 98c1 6b3b d916 833e 1f7b cbbd
000000c0: 91d7 1f3d 0756 9c3e dec1 31be 6f29 a03d
000000d0: a121 07bd efd7 58be e229 49bc 1e21 48be
000000e0: ec0f b83d 7404 933c ad78 093e 62cb 88bc
000000f0: 91c0 0cbe 6a2e 01be 816b 05be 3950 403e
00000100: 16dd 7e3d a630 63be 37c3 eabb 3050 99bd
00000110: 1eca 803e 3cba 0dbe c180 983e 5b7f 0f3e
00000120: 63e8 4cbe 4580 e13d 901b 45bc b91a 473e
00000130: a856 3ebe 1695 0b3d 77b9 7f3e d2db fa3c
00000140: 462a 483e f095 973e 7e26 3d3d ea33 203e
00000150: 095e fe3d e703 b03d 06a3 9d3e 99ed 363b
00000160: 85cd d33d 443d 903d 444e 18bc 26d0 0d3e
00000170: ab14 aa3d fedf 98be a81a 073e adca c9bc
00000180: 1666 22bd ce9a a2be 3a82 2e3d c8ed 83be
00000190: 1524 cabd 10c7 2e3e 783d f739 bba8 273e
000001a0: c858 43be 2b5d 5bbe a195 3dbe f7fe 00be
000001b0: 3d05 23bd 615b 8cbd 27eb ed3d 254d 433e
000001c0: 4fc4 a8be 41ad 5ebe d319 3f3e a0ce bfbd
000001d0: 66c8 00be 4bbf 9abe 0486 e2bd a2e4 39be
000001e0: 7761 8d3e 1efc 44be 1738 9bbc 3239 db3d
000001f0: b176 453e a020 993e 0d53 983c e473 10be
00000200: 20c8 5c3e 9278 dc3b eef6 773d eaf4 3dbe
00000210: 53ea 5cbe 03b5 083b 2c57 15be 0713 9b3d
00000220: a0c1 993d c0df 683c e2e4 17be c6d4 0ebd
00000230: 09f2 3c3e f894 553e 6cbb 4e3e 1b36 fc3d
00000240: 5b6e 0b3e f534 563e 39d0 5cbe 2232 36be
00000250: 4419 ca3d 83bb 4b3e 87b9 2ebe 824a 1b3e
00000260: f6b9 f4bd 5667 d3bc f2ea 483e a909 0cbe
00000270: a7c3 c43d 7676 8a3e bf4e 183e 39f1 08be
00000280: 77c2 1b3e 9b73 a2be 08d5 3fbe b6d6 d9bd
00000290: 2f70 fa3d 6eeb a8ba 45b0 4c3e b9d5 e83d
000002a0: a122 1bbe
-0.18144774 -0.10047245 0.10028417 -0.23289125 -0.15772773 0.08439625 -0.25828686 0.07980126
0.10200048 0.008888183 -0.017163277 0.040206373 0.14341389 0.055400036 -0.16921961 0.2162162
0.17065006 0.04686005 -0.22522728 -0.044816226 -0.17974406 0.12616414 -0.07148546 0.13542697
0.16839577 -0.10823108 -0.24434717 0.16300513 -0.22559372 -0.12060999 0.23231626 -0.21786796
-0.08127174 -0.104731694 -0.031621758 0.20124406 0.094914965 -0.1706786 0.17794289 -0.025950221
0.046961337 0.15559393 0.049453974 -0.32533902 0.3270813 0.0035973545 0.2560337 -0.09935593
0.03902394 0.30534384 -0.1735911 0.07820403 -0.032991055 -0.21176122 -0.012278052 -0.19543883
0.08987412 0.01794646 0.1342494 -0.016698543 -0.13745333 -0.12615362 -0.1302929 0.18780603
0.062222563 -0.22186527 -0.0071643847 -0.07485998 0.25154203 -0.13840574 0.2978573 0.14013426
-0.20010523 0.110107936 -0.012030497 0.19443788 -0.18587744 0.034077726 0.24973093 0.030622397
0.19547376 0.2960658 0.046179287 0.15644804 0.124202795 0.08594494 0.3078844 0.0027912615
0.10341934 0.070429355 -0.009296004 0.13848934 0.08304723 -0.29858392 0.13193762 -0.024632776
-0.039648138 -0.31758732 0.042604662 -0.2576735 -0.09870163 0.17068124 0.0004715731 0.1637296
-0.19076836 -0.2142226 -0.1851411 -0.12597261 -0.039799917 -0.06853367 0.116171174 0.19072397
-0.32962272 -0.21745779 0.18662195 -0.093655825 -0.12576446 -0.3022407 -0.11060718 -0.18153623
0.27613422 -0.192368 -0.018947644 0.107042685 0.19283558 0.29907703 0.01859429 -0.14106709
0.21560717 0.0067282403 0.060538225 -0.18550459 -0.21573763 0.0020859845 -0.14584035 0.075719886
0.07507634 0.014213502 -0.14833406 -0.034870885 0.18451704 0.20857608 0.20188683 0.12315007
0.13616316 0.20918639 -0.21563806 -0.17792562 0.098681 0.19895749 -0.1706296 0.15165141
-0.11949532 -0.02580611 0.19620875 -0.1367556 0.0960763 0.27043504 0.14873789 -0.13373269
0.15210901 -0.31728825 -0.18733609 -0.10636656 0.122284286 -0.0012887546 0.19989116 0.11368889
-0.15149929

l1.bias f4 [13]
00000000: 0196 4d3e f5ef 6dbe f3f9 1abe 4ee2 98bb
00000010: 169b ab3d b7ce 88bd 4534 1dbe 7388 d23d
00000020: 9537 333e 83b0 6f3e 2e45 023e 0839 84bd
00000030: 6561 26be
0.20076753 -0.23236068 -0.1513441 -0.0046656495 0.0837919 -0.06680053 -0.1535197 0.10279932
0.17501672 0.23407178 0.12721702 -0.0645619 -0.1624809

l2.weight f4 [13, 13]
00000000: 3132 98be cbd3 773d 6e00 283e b7a6 b33d
00000010: 7cef 3b3e 21c2 27be 9697 42be bc7f 983d
00000020: 5f07 5c3e 147d 04be c8d1 adbb 8f69 ff3c
00000030: 9b58 573e 78b2 20bc 7b09 4cbe 8140 5cbc
00000040: 8a7f c93d 850e 87bd cab7 76be 4878 dcbd
00000050: 4b19 13be 75fc 223e 1dea 773c a975 213e
00000060: aa4f dfbc e9ce 563e 1228 93bc 69b6 013e
00000070: bfbc 573e f261 99be 02dc 84be e471 adbd
00000080: 96e9 d33b 152b 11be 0d4f 9cbe f9c3 103d
00000090: 570e ec3d 7239 38be 01a7 0a3d af06 e8bd
000000a0: a161 1b3e 435a d8bd 5096 873e 2a93 463e
000000b0: ca02 5bbe a182 983e e902 3cbe 8a04 263d
000000c0: 85fd 5a3e 8655 2e3e 60db 71be 149c 33bd
000000d0: 38d0 2abd 1050 0bbe f54b 9abe 1dc6 1e3e
000000e0: 688b 8f3e 0313 3f3e 0fc0 983d 7bdf dcbd
000000f0: b10c c2bd 9a6d bf3d d728 293e 4abc d7bd
00000100: e677 a8be 37da 84bd 9b9b a9bc 122c b33d
00000110: f2e7 4fbd dca9 72be 7a90 0bbe c227 47bd
00000120: 49a4 96be d0dc c03d 8fcb 143e 0754 91be
00000130: 175d 973d 01bc b4bd 259e 98bc f308 3dbe
00000140: 6c22 e3bd f02c 95be c378 753d 61c4 21be
00000150: 4be7 3dbd 1dd7 c43d ddb4 11be 453b 493e
00000160: fb63 b73d 8f25 7e3d 820f 4c3e 6cdd 2bbe
00000170: ebf9 a9bc d7f8 f83d a011 56be e1fd 233e
00000180: 2d56 26be 760c 973c 9af9 4ebe 8f1b 24be
00000190: 6c6a 4f3e f8a5 4d3e 689b 51be f0aa 3c3e
000001a0: e157 b03d 23c5 01be 8c30 40be e7e6 d73c
000001b0: 8275 443e 41df 343e 57de 993d 5170 24be
000001c0: 867b fd3d 09ba 663e 3cbd 1a3d 1a4e 5d3e
000001d0: 6a5c 47be 6e24 cf3c a736 773e 5377 dbbd
000001e0: 3e4f 93bc df56 293d 30c3 9fbe d8b7 433e
000001f0: 84b6 2abe c115 9b3d 2b51 85be e413 73bd
00000200: 1f63 00be 333f 973e 622b c3bc 61ea 28be
00000210: 54b5 963e 9434 6abe 2e74 44be fb8c 5dbc
00000220: b450 48be 5443 0abc e685 e93d 4b4a 783e
00000230: 69cf 76be 7037 333e 5fef 2cbe e19d 96bc
00000240: 4481 5b3e 3ddd 043e 44c4 243e 2c07 5c3e
00000250: 1e6c 55be 0989 25be 0e1f 0f3e 8678 983c
00000260: 24ef 4fbe ab5c 94bd bce5 d6bc c9c8 553e
00000270: 2122 8cbd b23a 2f3c 4fd2 8c3d 585a 8abe
00000280: 6ac4 1cbe d347 5fbe d97f 873d e173 1dbd
00000290: 1a94 393e 8903 f8bd 3ca7 e2bd 6b64 e1bd
000002a0: 0423 56be
-0.29725793 0.060504716 0.16406414 0.08772033 0.18353075 -0.16382648 -0.19003138 0.074462384
0.21487187 -0.12938339 -0.005304549 0.031178264 0.21029894 -0.009808175 -0.19925492 -0.013443113
0.09838779 -0.06594566 -0.24093547 -0.10765129 -0.14365117 0.15916617 0.015131501 0.1576754
-0.027259666 0.20977367 -0.017963443 0.1266724 0.21068095 -0.2995754 -0.25949103 -0.084689885
0.0064670546 -0.1417659 -0.3052906 0.035343144 0.115261726 -0.17990664 0.033850674 -0.113294
0.15173961 -0.10564091 0.26481867 0.19392076 -0.21387783 0.29787162 -0.18360485 0.040531673
0.21385773 0.17024812 -0.23618841 -0.04385002 -0.04170248 -0.1360476 -0.30136076 0.15505262
0.28036046 0.18659596 0.07458507 -0.10784813 -0.09475077 0.09347077 0.16519485 -0.1053396
-0.32903975 -0.06486934 -0.020704081 0.0874864 -0.05075831 -0.23697609 -0.13629332 -0.0486219
-0.29422215 0.09417117 0.14530776 -0.2838442 0.07390802 -0.088249214 -0.018630097 -0.18460445
-0.1109055 -0.29135847 0.05992962 -0.15797569 -0.046363156 0.09611342 -0.1422915 0.19651516
0.08954617 0.062047537 0.19927791 -0.16783684 -0.020749053 0.121568374 -0.20905161 0.16014816
-0.16243811 0.018438559 -0.20212403 -0.16026138 0.2025544 0.20082843 -0.20469439 0.18424582
0.086105116 -0.12672858 -0.18768519 0.02635522 0.1918545 0.1766329 0.07513111 -0.1605847
0.12377076 0.22531904 0.037778124 0.21611825 -0.19468847 0.025285926 0.24141942 -0.10716119
-0.017982122 0.041342612 -0.31203604 0.191131 -0.16671187 0.075725086 -0.2603849 -0.05934514
-0.12537812 0.29540405 -0.023824397 -0.16495658 0.29435217 -0.2287162 -0.19184944 -0.013522382
-0.19562036 -0.008438904 0.11402492 0.2424709 -0.24102558 0.17501616 -0.16888188 -0.01838583
0.2143603 0.1297502 0.16090494 0.21487111 -0.20842025 -0.16165556 0.1397669 0.018612158
-0.20306069 -0.072442375 -0.026232593 0.20877375 -0.06842447 0.010695146 0.06876051 -0.27022052
-0.15309301 -0.21804743 0.06616182 -0.03844059 0.18122903 -0.12110049 -0.11067054 -0.11005481
-0.20911795

l2.bias f4 [13]
00000000: da7d a0be a576 29bd 0395 b63d c7bd 71bc
00000010: afcf 793e 4c16 f8bb 2b06 3ebe a2e7 013e
00000020: 9a38 02be aeee fd3d 779a 5b3e bf52 6d3c
00000030: 3081 793d
-0.31346017 -0.041372914 0.089151405 -0.014754719 0.24395631 -0.0075710174 -0.1855704 0.12686017
-0.12716904 0.1239904 0.21445642 0.01448506 0.06091422

output.weight f4 [1, 13]
00000000: ed36 b3bd a047 b83c 29a0 50be 0ba7 903e
00000010: ebb0 123e efb8 15bd a1d3 3abe 5622 bebc
00000020: 5fee 513e 7c17 6e3e 764a 6f3c 67ab 19be
00000030: a343 52be
-0.08750711 0.022495091 -0.20373596 0.28252444 0.14325301 -0.03655332 -0.18244793 -0.023209732
0.20501088 0.23251146 0.014605155 -0.15006791 -0.20533614
