Gui_szkolenie_4/torch_z_sets/heartmodel5.pt (torch, 3878 bytes, 5 tensors)

l1.weight f4 [13, 13]
-0.29661497 0.037974432 -0.046804935 -0.15643953 -0.054428756 0.1357519 -0.26140156 0.23433574
0.023628244 -0.086906075 -0.12820932 0.19854932 0.040801797 -0.06110293 -0.11565629 0.26224038
0.07091913 0.089125484 -0.3257129 -0.015935209 -0.2550339 0.10529198 -0.106582716 0.28131962
0.2842402 0.03845098 -0.26417452 0.23269242 -0.20616806 -0.12679389 0.28680477 -0.16263767
-0.11004515 -0.06723143 -0.062477365 0.12087153 0.030839456 -0.04513198 0.10861039 -0.0020000357
-0.0323023 0.022851929 -0.1110333 -0.47059873 0.2818976 0.06062601 0.19548164 -0.088200055
0.108422 0.41213074 -0.26288635 0.15024652 -0.04212817 -0.25278416 -0.043858703 -0.3924859
0.04733368 -0.036321204 0.18822217 -0.096463464 -0.122571945 -0.030381184 -0.024354352 0.21239619
0.18330522 -0.17554916 -0.040866416 -0.055143997 0.22671418 -0.106009156 0.20623887 0.3015964
-0.20751059 0.28720826 0.10534413 0.25802615 -0.40750015 -0.102860324 0.23616697 -0.003633455
0.14427635 0.26102126 -0.047139123 0.086429164 0.15516281 0.0024872802 0.39109567 0.035019126
0.21496166 -0.07325444 0.093370564 0.16009533 0.117611386 -0.27300248 0.15328617 -0.09570543
0.011102068 -0.35154578 0.15017802 -0.4001401 -0.16527851 0.018206896 0.10130641 0.049281012
-0.31240666 -0.11374564 -0.28157204 -0.18618579 -0.113857865 -0.0660739 0.30160594 0.0960141
-0.46461308 -0.18141612 0.3235472 -0.33088264 -0.032453533 -0.2931998 -0.23255426 -0.33931127
0.19281784 -0.05995575 -0.06401379 0.11406425 0.14098762 0.4836245 0.14273046 -0.0064511453
0.10985998 0.045339108 0.1038861 -0.27381018 -0.20014821 -0.16652013 -0.087744 0.012341963
0.077081695 -0.04803971 -0.022268219 0.07369087 0.32954755 0.2524882 0.3359994 0.10739212
0.16782847 0.17676634 -0.08750792 -0.078423485 0.21601334 0.25562897 -0.13696219 -0.034237634
-0.08115929 -0.18293472 0.15903641 -0.33704498 -0.004589602 0.3961572 0.24583612 0.03380185
0.33614826 -0.41830274 -0.2781983 -0.10079695 0.13778599 -0.019835351 0.35487813 0.19950104
-0.1453711
00000000: ebdd 97be 148b 1b3d 88b6 3fbd af31 20be
00000010: b0f0 5ebd 8c02 0b3e 6dd6 85be b5f5 6f3e
00000020: 0590 c13c d0fb b1bd 4e49 03be 8350 4b3e
00000030: c91f 273d 1147 7abd 34dd ecbd 5f44 863e
00000040: 0d3e 913d 6c87 b63d d7c3 a6be 8e8a 82bc
00000050: ce93 82be 52a3 d73d 0a48 dabd 2009 903e
00000060: ee87 913e c67e 1d3d e241 87be ec46 6e3e
00000070: b81d 53be 42d6 01be 13d8 923e 7d8a 26be
00000080: 5a5f e1bd a2b0 89bd 44e8 7fbd 7e8b f73d
00000090: 07a3 fc3c 50dc 38bd 206f de3d 0813 03bb
000000a0: 6b4f 04bd f833 bb3c 6d65 e3bd 51f2 f0be
000000b0: e254 903e fb52 783d 572c 483e 3ba2 b4bd
000000c0: 5b0c de3d cd02 d33e 0a99 86be 39da 193e
000000d0: 978e 2cbd ed6c 81be 2fa5 33bd e9f3 c8be
000000e0: f6e0 413d 8bc5 14bd 50bd 403e a38e c5bd
000000f0: 0007 fbbd f6e1 f8bc c782 c7bc 637e 593e
00000100: 5db4 3b3e 29c3 33be 8b63 27bd acde 61bd
00000110: c327 683e 541b d9bd 4830 533e d86a 9a3e
00000120: a87d 54be f60c 933e aabe d73d 011c 843e
00000130: dca3 d0be 6fa8 d2bd c1d5 713e 421f 6ebb
00000140: 2ebd 133e 94a4 853e f414 41bd c601 b13d
00000150: 00e3 1e3e a301 233b b13d c83e 3770 0f3d
00000160: e91e 5c3e 6d06 96bd 1139 bf3d 08f0 233e
00000170: 3dde f03d fbc6 8bbe 0df7 1c3e 3501 c4bd
00000180: 73e5 353c cffd b3be 44c8 193e 2adf ccbe
00000190: c53e 29be a126 953c bc79 cf3d e3da 493d
000001a0: c4f3 9fbe 79f3 e8bd 362a 90be 7da7 3ebe
000001b0: 502e e9bd c151 87bd 186c 9a3e 0aa3 c43d
000001c0: c4e1 edbe 26c5 39be fba7 a53e 7369 a9be
000001d0: ffed 04bd 491e 96be b422 6ebe 35ba adbe
000001e0: 0a72 453e 2994 75bd a919 83bd 849a e93d
000001f0: 0f5f 103e a19d f73e ef27 123e 2164 d3bb
00000200: 45fe e03d 80b5 393d 3cc2 d43d d930 8cbe
00000210: a7f3 4cbe 4184 2abe 20b3 b3bd f235 4a3c
00000220: 02dd 9d3d 49c5 44bd d76b b6bc 3deb 963d
00000230: 75ba a83e 2246 813e 1d08 ac3e 66f0 db3d
00000240: 3adb 2b3e 3c02 353e 5a37 b3bd 7e9c a0bd
00000250: 9a32 5d3e cde1 823e d13f 0cbe c33c 0cbd
00000260: d836 a6bd 3d53 3bbe 71da 223e 2991 acbe
00000270: 5f64 96bb 1ed5 ca3e 77bc 7b3e cf73 0a3d
00000280: a01b ac3e c72b d6be 0270 8ebe a26e cebd
00000290: c517 0d3e bf7d a2bc 96b2 b53e 004a 4c3e
000002a0: 29dc 14be

l1.bias f4 [13]
0.1436442 -0.13628915 -0.16618367 -0.045870606 0.11064776 -0.14015663 -0.044504277 0.10466988
0.2761546 0.14699638 0.10589379 -0.098242685 -0.061338212
00000000: 7717 133e 628f 0bbe 0d2c 2abe d1e2 3bbd
00000010: 4b9b e23d 3885 0fbe 1e4a 36bd 295d d63d
00000020: 2364 8d3e 3886 163e d8de d83d 7633 c9bd
00000030: c73d 7bbd

l2.weight f4 [13, 13]
-0.1134322 -0.061758276 0.02731454 0.2696014 0.2632272 -0.41909286 -0.26322204 0.19222625
0.24471581 -0.2700159 0.11238828 0.16332431 0.101860136 -0.044084255 -0.22559452 -0.054931086
0.15572102 0.09109921 -0.48621276 -0.31809255 -0.094988294 0.22355615 -0.23232327 0.12174276
0.15071796 0.12177973 0.1491732 0.08666972 0.1536379 -0.3578798 -0.2524668 -0.2787352
0.074380316 -0.10973447 -0.50284 0.119607285 0.09746646 -0.06399916 0.049452078 -0.18134695
0.23450333 -0.005203339 0.22594914 0.33196583 -0.19390838 0.27154046 -0.31187242 0.02720966
0.25222853 0.2767996 -0.27001554 0.016889151 -0.014428355 -0.10606588 -0.28385776 0.19619419
0.3440289 0.060886156 0.10957459 -0.15059493 -0.18853992 0.0860686 0.28121984 -0.08934335
-0.40933663 0.079756044 -0.19092585 -0.024284499 -0.09959575 -0.31003904 -0.08115914 -0.09562917
-0.21288387 0.26265547 0.17392033 -0.5414035 0.20657079 -0.20040756 0.090520315 -0.201754
-0.19488269 -0.4216423 -0.09563434 -0.20424421 0.112678096 0.10906546 -0.40505922 0.3756853
0.08904441 -0.06892787 0.22655368 -0.41169837 -0.022852125 0.17500395 -0.07228665 0.110878155
-0.053446315 0.04284409 -0.3590364 -0.12916921 0.10736614 0.18181452 -0.325244 0.10516067
0.010560783 -0.08411586 -0.064248316 0.066878885 0.33125263 0.20471281 0.08488265 -0.20456186
0.18046719 0.33185098 0.21241297 0.14834093 -0.29476508 -0.043648016 0.30155623 0.019318927
-0.019835923 0.03875743 -0.2914699 0.23446302 -0.1266721 0.10928622 -0.28135467 -0.012334863
-0.25275272 0.46657488 0.0007109439 -0.07396501 0.16281857 -0.33711737 -0.25139847 0.22796263
0.0089900885 -0.04358984 0.0019658387 0.40131733 -0.35066888 0.37469536 -0.17518426 0.059274826
0.12516019 0.09312374 0.21901387 0.26370326 -0.44183713 -0.3550501 0.20088013 0.13078733
-0.4007841 -0.08680347 0.1305807 0.06570198 0.0051640696 -0.103527516 -0.020946227 -0.15585472
-0.20980985 -0.3572342 -0.021607809 0.078616716 0.34243208 -0.20024386 -0.119699255 -0.09965401
-0.3980787
00000000: 244f e8bd 3ff6 7cbd bec2 df3c 3209 8a3e
00000010: b7c5 863e 5793 d6be 0ac5 86be f5d6 443e
00000020: c896 7a3e 863f 8abe d42b e63d 7d3e 273e
00000030: 0c9c d03d b191 34bd 4002 67be 6bff 60bd
00000040: 5575 1f3e 3992 ba3d e1f0 f8be 07dd a2be
00000050: 3989 c2bd e7eb 643e 27e6 6dbe 4554 f93d
00000060: cf55 1a3e a767 f93d dcc0 183e e57f b13d
00000070: 4153 1d3e 053c b7be 5443 81be 61b6 8ebe
00000080: b554 983d 77bc e0bd 1fba 00bf aaf4 f43d
00000090: 7f9c c73d fe11 83bd 438e 4a3d 04b3 39be
000000a0: a421 703e c580 aabb 365f 673e 6df7 a93e
000000b0: eb8f 46be 5a07 8b3e bead 9fbe cbe6 de3c
000000c0: 1924 813e adb8 8d3e 7a3f 8abe 1e5b 8a3c
000000d0: e864 6cbc 1139 d9bd ce55 91be 21e7 483e
000000e0: 8e24 b03e c363 793d a568 e03d 8f35 1abe
000000f0: 9c10 41be bc44 b03d 0cfc 8f3e a5f9 b6bd
00000100: 9294 d1be 2357 a33d 1182 43be 49f0 c6bc
00000110: dbf8 cbbd 70bd 9ebe c336 a6bd 3ad9 c3bd
00000120: 3bfe 59be c77a 863e 2c18 323e 6b99 0abf
00000130: 4b87 533e a437 4dbe b762 b93d 9a98 4ebe
00000140: 548f 47be 80e1 d7be f0db c3bd 6525 51be
00000150: c6c3 e63d b65d df3d ec63 cfbe d359 c03e
00000160: ea5c b63d 0e2a 8dbd b0fd 673e 21ca d2be
00000170: 6134 bbbc 3c34 333e 060b 94bd 1614 e33d
00000180: 86ea 5abd 497d 2f3d 9ed3 b7be ef44 04be
00000190: c7e2 db3d 962d 3a3e 6286 a6be 7a5e d73d
000001a0: 2207 2d3c f044 acbd 9f94 83bd ccf7 883d
000001b0: f299 a93e 3ca0 513e f4d6 ad3d aa78 51be
000001c0: 64cc 383e 5fe8 a93e c982 593e afe6 173e
000001d0: 73eb 96be 43c8 32bd 9465 9a3e ba42 9e3c
000001e0: f27e a2bc 1cc0 1e3d 8b3b 95be 1317 703e
000001f0: 55b6 01be 74d1 df3d b80d 90be 2a18 4abc
00000200: ce68 81be e7e2 ee3e a35e 3a3a f87a 97bd
00000210: e9b9 263e a69a acbe 4db7 80be 096f 693e
00000220: 2a4b 133c 438b 32bd 4dd5 003b 7779 cd3e
00000230: df8a b3be 12d8 bf3e 8163 33be 29ca 723d
00000240: fe29 003e a9b7 be3d 2c45 603e 1d04 873e
00000250: 7a38 e2be 20c9 b5be 85b3 4d3e 1ded 053e
00000260: 9333 cdbe 05c6 b1bd f2b6 053e c28e 863d
00000270: 5b37 a93b 3c06 d4bd 6c97 abbc 6198 1fbe
00000280: 65d8 56be 67e7 b6be dc02 b1bc cd01 a13d
00000290: 4253 af3e ba0c 4dbe e224 f5bd 6717 ccbd
000002a0: f9d0 cbbe

l2.bias f4 [13]
-0.24415246 -0.09524677 0.056539 0.042699974 0.18540694 0.0765756 -0.121053256 0.1326929
-0.18461765 0.19924721 0.32861575 0.0045972187 0.14210889
00000000: 1a03 7abe bd10 c3bd 7095 673d 2be6 2e3d
00000010: 51db 3d3e abd3 9c3d c5ea f7bd a6e0 073e
00000020: 690c 3dbe 7607 4c3e 5340 a83e 44a4 963b
00000030: fe84 113e

output.weight f4 [1, 13]
-0.25916633 -0.1859529 -0.2469942 0.4199483 0.24966647 -0.23372148 -0.45569238 0.06271765
0.38780454 0.37312457 -0.17449929 -0.2949154 -0.36511698
00000000: 73b1 84be 706a 3ebe 0cec 7cbe 7703 d73e
00000010: 91a8 7f3e af54 6fbe 8350 e9be 1c72 803d
00000020: 518e c63e 2f0a bf3e f1af 32be 27ff 96be
00000030: 9df0 babe
