Gui_szkolenie_4/torch_z_sets/irisclass.pt (torch, 2152 bytes, 4 tensors)

l1.weight f4 [4, 4]
0	0x3f41a751	0.7564593
1	0xbdf504b4	-0.11963788
2	0xbea5f6ab	-0.32414755
3	0xbf82f65a	-1.023143
4	0xbf9867ad	-1.1906639
5	0x3fb87343	1.4410175
6	0xbfdfdf15	-1.7489954
7	0xbf957c6e	-1.1678598
8	0x3ebd3c89	0.36960247
9	0xbf15e341	-0.58549887
10	0x3fd9cd98	1.7015867
11	0x3fccab95	1.5989863
12	0x3f041d8d	0.5160759
13	0x3c3fa5d4	0.011697251
14	0xbfe39369	-1.7779361
15	0xbf272573	-0.6529152

l1.bias f4 [4]
0	0x3ffd3958	1.9783125
1	0x3ecbc7a1	0.39800742
2	0xbf59fd97	-0.8515257
3	0x3fc2315b	1.5171312

output.weight f4 [3, 4]
0	0xbfaf0804	-1.3674321
1	0x3ff14f26	1.8852279
2	0xbf8dbbbd	-1.1072918
3	0x3fca025a	1.5781968
4	0x3fafbfb4	1.3730378
5	0xbf241e5d	-0.6410883
6	0xbfc3734f	-1.5269564
7	0x3ef6fc81	0.4823952
8	0xbf81f52f	-1.0152949
9	0xbf629679	-0.88510853
10	0x3fe0cecb	1.7563108
11	0xbfa1a42c	-1.2628226

output.bias f4 [3]
0	0xbfa1e6b0	-1.2648525
1	0x3f862cc0	1.0482407
2	0xbf26a9e3	-0.65102977
