Gui_szkolenie_4/torch_z_sets/model_mnist.pt (torch, 231749 bytes, 10 tensors)

conv1.weight f4 [6, 1, 3, 3]
0	0xbf11d2f9	-0.56962544
1	0x3dfd696d	0.12373624
2	0x3ec33fa7	0.381345
3	0xbdfef5d7	-0.12449234
4	0x3db545f0	0.0885123
5	0x3e934e4f	0.28770682
6	0x3ee4ca5b	0.44685635
7	0x3d198724	0.037482396
8	0x3f18392c	0.5946224
9	0xbe9dcba3	-0.30819425
10	0x3e0e0498	0.1386894
11	0xbc196d6f	-0.00936447
12	0xbd8b67e7	-0.06806927
13	0x3f01ea6f	0.5074834
14	0x3f2adb6f	0.6674108
15	0x3f0a0aec	0.53922915
16	0x3f180f20	0.5939808
17	0x3df9ff6b	0.1220692
18	0x3ee2f51a	0.44327623
19	0x3ecfeef9	0.4061201
20	0xbef7e173	-0.48414192
21	0x3e1ce996	0.15323481
22	0xbd89862e	-0.06715046
23	0x3dd6e14b	0.1049219
24	0x3db7f181	0.0898161
25	0x3f0c6095	0.5483487
26	0x3ed9b8fd	0.42523947
27	0x3eae803b	0.34082207
28	0x3e5878da	0.21139851
29	0x3e9be849	0.30450657
30	0x3dd13d6b	0.10216793
31	0x3f02e088	0.5112386
32	0x3eea3db9	0.45750216
33	0x3ef7772b	0.48333105
34	0x3f28ecd2	0.6598636
35	0x3edda615	0.43290773
36	0xbec3c6d2	-0.38237625
37	0xbf1396da	-0.57652056
38	0xbeda1f15	-0.4260184
39	0x3cac3fc4	0.0210265
40	0x3ec55d1e	0.38547605
41	0x3e42640d	0.18983479
42	0x3f23d8c3	0.6400263
43	0x3f141653	0.57846564
44	0x3ebe9b23	0.37227735
45	0x3ee39e77	0.44456837
46	0x3f109f82	0.5649339
47	0xbcb7c038	-0.022430524
48	0x3e48e55f	0.19618748
49	0x3eb8d209	0.36097744
50	0x3eed112c	0.46302164
51	0xbdaac02c	-0.08337435
52	0x3f12cf24	0.5734732
53	0x3f1c237c	0.60991645

conv1.bias f4 [6]
0	0x3e850d27	0.25986597
1	0xbbab487f	-0.005227148
2	0xbab06ddf	-0.0013460479
3	0x3b32583a	0.0027213232
4	0x3e55ec60	0.20890951
5	0x3db98cb0	0.09060037

conv2.weight f4 [16, 6, 3, 3]
0	0xbd8f6cd3	-0.070031784
1	0x3e3cc10a	0.18433014
2	0x3dbab886	0.09117226
3	0x3dde725b	0.10861655
4	0x3e360969	0.17777027
5	0xbd76ba7a	-0.06023643
6	0x3e172805	0.1476136
7	0x3c128834	0.008943606
8	0xbecfbd85	-0.4057428
9	0xbe15d19a	-0.14630738
10	0x3e84df37	0.2595155
11	0x3dd21ec3	0.102597736
12	0x3e8eebbc	0.27914226
13	0x3ead84e3	0.33890447
14	0xbc3047e3	-0.010759327
15	0x3e8bc78f	0.2730069
16	0xbd90004e	-0.07031308
17	0xbe8812c2	-0.2657681
18	0xbdeaf657	-0.11472767
19	0xbd947ea4	-0.07250717
20	0xbc1164f8	-0.0088741705
21	0xbe25ad42	-0.16179374
22	0xbd897e32	-0.06713523
23	0x3c8c582a	0.017131884
24	0xbc6a29b0	-0.014292166
25	0xbd82b13c	-0.06381461
26	0x3b0b37ed	0.002124305
27	0xbe8b8905	-0.27252975
28	0xbdfa5c41	-0.12224627
29	0x3da4fdbd	0.08056209
30	0x3e52043f	0.20509432
31	0x3d78616e	0.06063979
32	0xbc94cbd5	-0.018163601
33	0x3d143c84	0.036190525
34	0x3d96a3e4	0.073554784
35	0xbea7485c	-0.32672393
36	0x3d29dc8a	0.041470088
37	0x3eb183fe	0.34671015
38	0x3e864ad3	0.2622896
39	0x3db2ee98	0.087369144
40	0x3e3ad29d	0.18244405
41	0xbd881d5b	-0.06646224
42	0x3e3a1a4e	0.18174097
43	0xbe5fe7bd	-0.21865745
44	0xbeb72e52	-0.35777527
45	0xbe10a19b	-0.14124148
46	0xbda5e633	-0.08100548
47	0x3c7805f3	0.015138137
48	0xbca6e433	-0.020372486
49	0x3d1cc8d3	0.03827746
50	0xbe023f3e	-0.12719437
51	0x3df741fd	0.12073133
52	0xbd907c78	-0.070549905
53	0xbe0912f1	-0.13386132
54	0x3d8b5374	0.06803027
55	0x3e34bbbb	0.17649738
56	0x3e484f87	0.19561587
57	0xbe6c95ea	-0.23104063
58	0xbd946a81	-0.072468765
59	0xbe512e2e	-0.20427772
60	0xbcc7a115	-0.024368802
61	0xbdfbaea4	-0.122891694
62	0xbd81d5a8	-0.0633958
63	0x3e4ae76e	0.19814846
64	0x3e4d8414	0.20069915
65	0x3e302bd9	0.17204227
66	0xbe7578fb	-0.23971932
67	0xbdeabbca	-0.11461599
68	0xbe79db1b	-0.24399988
69	0xbec04b83	-0.3755761
70	0xbe7bf7da	-0.24606267
71	0xbe034874	-0.12820607
72	0x3e8cb8d3	0.2748476
73	0x3e3493a5	0.17634447
74	0x3e9c3a53	0.30513248
75	0xbdb4d0c9	-0.08828885
76	0x3e12b940	0.1432848
77	0xbc3ea785	-0.011636619
78	0xbeb0c6d0	-0.34526682
79	0xbd896803	-0.06709292
80	0xb9a86cbe	-0.00032124476
81	0x3e4ac491	0.19801547
82	0x3e4cdfe4	0.20007282
83	0x3ebfb9f0	0.37446547
84	0xbd8fad6b	-0.07015499
85	0xbe067204	-0.13129431
86	0xbe290906	-0.16507348
87	0xbeb94059	-0.36181906
88	0xbe24c2cc	-0.16089934
89	0xbd894f4a	-0.06704576
90	0x3e6da933	0.23209076
91	0x3d9ba143	0.075991176
92	0x3e751cf7	0.2393683
93	0xbecd48ac	-0.40094507
94	0xbe5d988f	-0.21640228
95	0xbdc27573	-0.09495058
96	0xbdb4a239	-0.08820004
97	0x3e29aef6	0.16570649
98	0x3df4965a	0.1194274
99	0x3e512825	0.2042547
100	0x3dc4d703	0.09611323
101	0x3e2d803d	0.1694345
102	0x3d443975	0.047906358
103	0x3cfd97c7	0.030956162
104	0xbe14bb83	-0.14524655
105	0xbe732024	-0.2374273
106	0xbe9075d7	-0.28214905
107	0xbe4269fd	-0.18985744
108	0x3d2a1a0d	0.04152875
109	0x3c156099	0.009117269
110	0x3d3a9ce4	0.04555978
111	0xbd83586e	-0.06413351
112	0xbdab1855	-0.0835425
113	0xbda30898	-0.079606235
114	0xbe477ee1	-0.19481994
115	0xbd694f22	-0.056960233
116	0xbe2b145c	-0.16706985
117	0x3d6883b0	0.056766212
118	0x3e19f80f	0.15036033
119	0x3ea00a90	0.3125806
120	0x3df6836f	0.12036788
121	0x3d8c8cf8	0.06862825
122	0xbd29b78d	-0.041434813
123	0xbdd38087	-0.10327249
124	0xbe5d706e	-0.2162492
125	0x3e183cd2	0.14866951
126	0xbda4b176	-0.080416605
127	0xbde95652	-0.113934174
128	0xbe229a43	-0.15879159
129	0x3e443d82	0.19164088
130	0xbddba6d3	-0.107251786
131	0x3e036282	0.12830546
132	0xbb9dc412	-0.004814633
133	0xbd76efab	-0.06028716
134	0xbda1e07c	-0.07904145
135	0xbe326d84	-0.1742459
136	0xbd474f75	-0.04865976
137	0x3d62f129	0.05540577
138	0x3e30caf7	0.17264925
139	0x3e468fe3	0.19390826
140	0xbca4c5f0	-0.020113915
141	0xbc4f49e5	-0.012651895
142	0xbd88a520	-0.0667212
143	0x3c8ff9ad	0.01757511
144	0x3dd3a48e	0.10334121
145	0x3e831854	0.25604498
146	0x3e31cfe6	0.17364463
147	0x3e8a7426	0.2704174
148	0x3e40ed4f	0.18840526
149	0xbe0502ac	-0.129893
150	0x3ca94a9a	0.020665456
151	0x3d187a77	0.037226167
152	0x3d3917e7	0.04518881
153	0xbe6b2efa	-0.22967139
154	0xbd95243b	-0.07282301
155	0xbd90b3d5	-0.0706555
156	0x3d5564bf	0.052098032
157	0xbbf6db37	-0.0075334567
158	0xbdc7db12	-0.09758581
159	0xbd3b7aa7	-0.045771267
160	0x3d0ca8e7	0.034340765
161	0xbd2c7a82	-0.04210902
162	0x3c17636a	0.009240011
163	0xbd9488a2	-0.07252623
164	0xbdc54f4b	-0.096342646
165	0x3e1c7651	0.15279509
166	0xbe57133f	-0.21003436
167	0xbe27e4ed	-0.16395922
168	0xbe24e7b0	-0.16104007
169	0xbdc73e28	-0.09728652
170	0x3ce4b4c3	0.027918225
171	0x3dd0be2e	0.10192524
172	0xbb8c69ed	-0.0042850883
173	0x3d93924b	0.072056375
174	0x3e32d2d1	0.17463233
175	0xbd2496f4	-0.040183023
176	0xbe50f560	-0.20406103
177	0xbdd96d99	-0.10616607
178	0xbdf24db7	-0.11831229
179	0x3e95d6bd	0.29265395
180	0x3cf41de9	0.029799419
181	0x3e0c3f51	0.13696028
182	0x3de722ca	0.11285932
183	0xb95c4c9f	-0.00021009379
184	0x3d3c15e5	0.045919318
185	0xbdcceb5f	-0.10005831
186	0x3e155579	0.14583386
187	0x3cc15d3d	0.02360403
188	0x3e31beaf	0.17357896
189	0x3d291d86	0.04128792
190	0x3e258879	0.16165341
191	0xbc9fd175	-0.019509057
192	0x3e24ca75	0.16092856
193	0xbdd5b277	-0.1043443
194	0xbe92f6e3	-0.28703985
195	0x3e027a35	0.12741931
196	0xbdc62233	-0.09674492
197	0xbca69316	-0.020333808
198	0x3db4b02b	0.08822664
199	0x3d13e3bb	0.036105853
200	0x3d84aceb	0.06478294
201	0xbdbf56f3	-0.09342756
202	0xbea8c0fd	-0.32959738
203	0xbe5b6593	-0.21425466
204	0xbe0ad339	-0.13557138
205	0xba77d00a	-0.00094533025
206	0x3ec50c2e	0.38485855
207	0x3b17d287	0.0023166256
208	0x3ddac6fd	0.10682485
209	0x3dfe65b3	0.12421741
210	0x3d3891ba	0.04506085
211	0xbe52649b	-0.2054619
212	0xbe891d66	-0.26780242
213	0xbda34c86	-0.0797358
214	0x3dfaa14b	0.122377954
215	0x3d6f6515	0.05844601
216	0x3df05726	0.11735372
217	0x3dfad69f	0.12247967
218	0xbdaed973	-0.08537569
219	0x3dba983c	0.09111068
220	0xbdf81f90	-0.12115395
221	0xbbddbe07	-0.006767038
222	0xbd6c44c4	-0.057682768
223	0x3ca31d29	0.019911366
224	0x3daf63b7	0.08563941
225	0xbe01ca10	-0.12674737
226	0xbdfd06c3	-0.12354805
227	0xbd8e8c80	-0.06960392
228	0x3ce61c7e	0.028089758
229	0xbe70941b	-0.23493998
230	0x3d83ef72	0.06442155
231	0xbda483d1	-0.080329545
232	0x3de234da	0.11045237
233	0x3e077707	0.13228999
234	0xbde1fcad	-0.11034522
235	0xbe0783ac	-0.13233823
236	0xbdedc349	-0.11609513
237	0x3d92d951	0.07170356
238	0x3b8121d7	0.0039408016
239	0xbcdaa1f3	-0.026688552
240	0xbd855870	-0.06511009
241	0xbcf81511	-0.030283483
242	0xbde4a6a0	-0.11164594
243	0x3dda2ba6	0.106528565
244	0xbd125f1e	-0.035735242
245	0xbd802160	-0.06256366
246	0x3c067f31	0.008209036
247	0xbdbb459f	-0.091441385
248	0xbde8862d	-0.11353717
249	0x3d6ab6e0	0.05730331
250	0x3de96478	0.11396116
251	0x3e066ca3	0.13127379
252	0xbd39cb8c	-0.045360133
253	0xbc9368b7	-0.017994268
254	0xbd80410d	-0.062624075
255	0xbdc5ded5	-0.096616425

conv2.bias f4 [16]
0	0xbe289022	-0.16461232
1	0x3e172e12	0.14763668
2	0xbd22554e	-0.039632134
3	0xbd0035af	-0.031301197
4	0xbd75f260	-0.0600456
5	0xbd8038fe	-0.062608704
6	0xbeb2d1c2	-0.34925658
7	0xbe0a24d0	-0.13490605
8	0xbe3ff533	-0.1874588
9	0xbe0ec0fe	-0.13940808
10	0xbe03b62c	-0.12862462
11	0x3c06cfef	0.008228286
12	0xbccf778f	-0.025325565
13	0xbe41a304	-0.18909842
14	0xbdd764c4	-0.105172664
15	0x3be78561	0.0070654606

NeuronLine.weight f4 [120, 400]
0	0x3d0abfdf	0.03387439
1	0xbd91cf4d	-0.071196176
2	0xbd08f4c2	-0.033436544
3	0xbdcce65f	-0.10004877
4	0xbde4d88e	-0.11174117
5	0x3dc8593e	0.097826466
6	0x3d4ed46a	0.050495543
7	0xbd45a1f0	-0.04825014
8	0x3cd73cba	0.026274074
9	0xbd30d8f4	-0.043175653
10	0x3e272f81	0.16326715
11	0x3d57051e	0.052495115
12	0x3dcad336	0.099035665
13	0x3d2b549e	0.041828744
14	0x3d181fbb	0.037139636
15	0xbd1ad4a3	-0.037800442
16	0xbd2955c6	-0.041341566
17	0xbcb373e2	-0.021905843
18	0x3ce3fc16	0.027830165
19	0x3d9dd4b0	0.077065825
20	0xbe0177dd	-0.1264338
21	0xbe17781b	-0.1479191
22	0xbcb41beb	-0.021985969
23	0x3da466e5	0.08027438
24	0x3cc877ee	0.02447125
25	0x3d240aed	0.040049482
26	0x3e7b98a3	0.24569945
27	0x3e3ea411	0.18617274
28	0x3d22f266	0.03978195
29	0xbe05a865	-0.13052519
30	0x3de5c686	0.11219506
31	0x3e21121f	0.15729569
32	0x3d4a2907	0.049355533
33	0x3cdc229b	0.02687197
34	0xbddcde61	-0.10784603
35	0x3db9d002	0.090728775
36	0x3cbe27c8	0.023212329
37	0xbdab12e9	-0.08353216
38	0xbb8d8d80	-0.0043198466
39	0x3c339fc0	0.01096338
40	0xbdcff93b	-0.10154959
41	0xbd1b86cd	-0.037970353
42	0x3c2c7aef	0.0105273565
43	0x3d3ab34c	0.045581147
44	0xbb9cf13c	-0.0047894996
45	0x36f3ba80	7.263676e-06
46	0x3ca2123b	0.019784084
47	0x3dd7aad9	0.105306335
48	0x3c6ef443	0.014584604
49	0x3d69fdf8	0.05712697
50	0x3bdc069a	0.006714654
51	0x3d1c0b60	0.038096786
52	0xbca578a3	-0.020199126
53	0x3c7a11e4	0.0152630545
54	0xbd272015	-0.04080208
55	0x3cd4e69e	0.025988873
56	0x3ca222b2	0.019791935
57	0x3c93a16d	0.01802131
58	0x3ca0e0e1	0.01963848
59	0xbd81f606	-0.06345753
60	0xbac3716c	-0.0014911122
61	0x3d4ce97c	0.050027356
62	0x3da5311d	0.08066008
63	0x3d915a3c	0.07097289
64	0x3c417530	0.011807725
65	0xba4a68d2	-0.0007721308
66	0x3ccb6013	0.024826085
67	0x3d4719d3	0.048608612
68	0x3b67afc8	0.0035352577
69	0x3d0459d2	0.03231222
70	0xbd1e0d85	-0.038587112
71	0xbd1d2ab6	-0.03837081
72	0x3d0e1705	0.034689922
73	0x3db58b3a	0.08864446
74	0x3c264278	0.010147683
75	0x3c595aef	0.013266309
76	0x3d01aae5	0.03165712
77	0xbd167682	-0.03673411
78	0xbe053333	-0.13007812
79	0xbdb637df	-0.08897375
80	0x3db82173	0.08990755
81	0x3d80c5a8	0.062877
82	0x3d033db9	0.032041285
83	0xbcc4e96d	-0.024037087
84	0xbdc8f042	-0.098114505
85	0x3e105d31	0.1409805
86	0x3ccac983	0.024754291
87	0x3cd5825c	0.026063137
88	0x3d6166f5	0.055029828
89	0x3c602c6b	0.013682465
90	0xbd8b60f4	-0.06805602
91	0xbdac1092	-0.08401598
92	0x3d61b5d5	0.05510505
93	0xbc6a6dac	-0.014308374
94	0x3dba3216	0.090915844
95	0x3d3997e9	0.04531089
96	0x3cc5ddcb	0.02415361
97	0xbbdff6cb	-0.00683484
98	0x3cba6df9	0.022757517
99	0x3d25977c	0.04042767
100	0x3d8a82b6	0.067632124
101	0xbc053854	-0.008131105
102	0x3c173b9f	0.009230523
103	0x3d0f06f4	0.03491874
104	0xbda46e63	-0.08028867
105	0xbdd955a9	-0.106120415
106	0xbcef376a	-0.029201228
107	0xbb8e0ad7	-0.0043347883
108	0x3ca24fe2	0.019813482
109	0x3d076fdf	0.033065673
110	0x3cff4058	0.031158611
111	0xbb65ad2a	-0.003504584
112	0x3c4578d8	0.012052737
113	0x3cea7701	0.028621199
114	0x3d296100	0.041352272
115	0xbd8de087	-0.06927591
116	0xbdcbf28e	-0.09958373
117	0xbcc1b72e	-0.023646917
118	0x3cc4c821	0.02402121
119	0x3dcc2c61	0.09969402
120	0x3d6db215	0.05803116
121	0x3cb60a7e	0.0222218
122	0x3d404319	0.04693899
123	0x3d83bac4	0.06432107
124	0x3d560e2f	0.05225962
125	0x3d650dba	0.055921294
126	0x3cb1fb00	0.021726131
127	0x3d885b37	0.06658023
128	0x3c6f8c6b	0.014620881
129	0xbd341ad1	-0.043970887
130	0x3d75462e	0.05988138
131	0xbbeb6735	-0.007183934
132	0x3d9b2583	0.07575514
133	0x3d9b99d3	0.07597699
134	0x3de3e626	0.11127882
135	0xbc881922	-0.016613547
136	0x3c8cd93b	0.017193427
137	0xbbaa77ba	-0.005202261
138	0x3cd5729f	0.026055632
139	0x3cd9f0b6	0.026604038
140	0xbd56ec6b	-0.05247156
141	0xbc4abb4c	-0.012373757
142	0xbd4a26b6	-0.049353324
143	0x3d8617a5	0.065474786
144	0xbca8e3b5	-0.020616392
145	0x3cb55b34	0.022138216
146	0x3d9eb781	0.07749844
147	0x3d1fdb8c	0.039027736
148	0x3d46cd88	0.048535854
149	0x3c816b80	0.01579833
150	0x3d5ac751	0.05341274
151	0xbcd52945	-0.026020655
152	0x3d57a614	0.05264862
153	0x3d798c17	0.060924616
154	0xbdac98d8	-0.0842759
155	0x3cc04a58	0.02347295
156	0xbda63b4a	-0.08116777
157	0x3bb2cc06	0.0054564504
158	0xbd531dbf	-0.05154204
159	0xbd98013b	-0.0742211
160	0xbc0336fb	-0.008008714
161	0xbcb39722	-0.021922652
162	0x3d343892	0.043999262
163	0x3e05ea8b	0.13077752
164	0x3df8fc82	0.12157537
165	0xbd9aef1e	-0.07565139
166	0x3bc09876	0.0058775498
167	0xbc9833f3	-0.018579459
168	0x3d03921b	0.03212176
169	0x3d8aef19	0.067838855
170	0xbb66c543	-0.0035212792
171	0xbdb0cd85	-0.0863295
172	0x3bb481e3	0.0055086478
173	0x3d023634	0.031789973
174	0x3d995aba	0.07488008
175	0x3cb1e44e	0.02171531
176	0x3c87106c	0.016487323
177	0xbcf309bc	-0.029667728
178	0xbd9f658c	-0.077830404
179	0xbe16a71f	-0.14712189
180	0xbd1af4c5	-0.037831087
181	0xbce88514	-0.02838377
182	0xbd534e01	-0.051588062
183	0xbd27d821	-0.0409776
184	0xbd6beede	-0.05760085
185	0x3ab5772a	0.0013844718
186	0xbcf34105	-0.02969409
187	0x3d8e5a5e	0.0695083
188	0x3cf8d588	0.030375257
189	0x3d15d75c	0.036582336
190	0xbc31a5c1	-0.0108427415
191	0xbc2e1532	-0.010625171
192	0x3b22031b	0.002472109
193	0xbd87c0ac	-0.06628546
194	0x3ddbb392	0.1072761
195	0xbd3bb854	-0.045830086
196	0xbc713a23	-0.0147233335
197	0xbd030c37	-0.03199407
198	0xbc172108	-0.009224184
199	0xbcb49c1a	-0.022047091
200	0x3d37061c	0.04468356
201	0xbd2b2f7c	-0.04179333
202	0x3dbfc86f	0.093644015
203	0xbc12b573	-0.008954394
204	0x3d017ca4	0.031613007
205	0xbd09ba8e	-0.033625178
206	0x3d6e9abc	0.058253035
207	0x3d2fce15	0.042921145
208	0x3cc052ff	0.023477076
209	0xbcc6c3a3	-0.024263209
210	0x3c838db6	0.016058784
211	0x3ba7371f	0.0051030065
212	0xbcb01b43	-0.021497374
213	0x3c59db3d	0.013296899
214	0x3d18d6d7	0.037314262
215	0x3cde230e	0.027116325
216	0x3d4ec365	0.05047931
217	0x3d140e29	0.036146317
218	0x3d4ae5e4	0.049535647
219	0x3c04f860	0.008115858
220	0x3d48f914	0.049065664
221	0xbd407daf	-0.04699486
222	0xbd0ddc11	-0.0346337
223	0x3d79eed6	0.061018787
224	0x3b983209	0.0046446365
225	0xbd545e05	-0.051847477
226	0x3c023e19	0.007949376
227	0x3e23f885	0.16012771
228	0x3dcc20fc	0.09967229
229	0x3d3c3bb5	0.04595538
230	0x3d7608a3	0.06006683
231	0x3cd6a066	0.02619953
232	0x3d7d7254	0.06187661
233	0x3d2c1268	0.04200974
234	0xbc3ef45e	-0.011654941
235	0xbd52c45c	-0.051456794
236	0xbd9f2ed4	-0.07772604
237	0xbd2be6d6	-0.04196819
238	0x3d909007	0.07058721
239	0xbd06e4d8	-0.032933086
240	0xbdb16869	-0.08662493
241	0x3bb913db	0.005648119
242	0x3c952c4a	0.018209595
243	0xbd4f1d82	-0.05056525
244	0x3d61e9e8	0.05515471
245	0xbca82b44	-0.020528443
246	0xbd6c47bd	-0.057685602
247	0x3ce2e1a9	0.027695494
248	0x3b4beaff	0.003111541
249	0x3d0f078e	0.034919314
250	0x3d19e4a2	0.037571557
251	0x3da1c53b	0.07898947
252	0x3d5742d2	0.05255396
253	0x3c450ef1	0.012027488
254	0xbda35b4c	-0.07976398
255	0x3d181f5a	0.037139274

NeuronLine.bias f4 [120]
0	0x3d1519c2	0.036401518
1	0x3c049370	0.008091792
2	0x3d6388e3	0.055550467
3	0x3d9b8d76	0.07595341
4	0x3d5c2f41	0.053756002
5	0xbc8b89dd	-0.017033512
6	0x3b92642a	0.004467507
7	0x3d655cd4	0.05599673
8	0xbd4acc9f	-0.049511548
9	0x3d034507	0.03204825
10	0xbc47d62a	-0.012197057
11	0x3d1f4b29	0.038890038
12	0x3d6e34a9	0.05815569
13	0x3c2839d9	0.010267698
14	0x3c82953f	0.015940307
15	0xbd03b599	-0.032155607
16	0x3c20d7d9	0.009817087
17	0xbcf07963	-0.029354757
18	0x3ca17d59	0.01971309
19	0x3d5077d4	0.050895527
20	0xbd274bb6	-0.040843688
21	0xbb81dbfd	-0.003962992
22	0xbd129dee	-0.035795145
23	0x3d98a87b	0.0745401
24	0xbd187acc	-0.037226483
25	0xbb97b4a3	-0.004629688
26	0x3c9d0107	0.019165529
27	0xbc91d443	-0.01780141
28	0x3d0bbbf1	0.03411478
29	0xbd31089a	-0.043221094
30	0x3d348e16	0.044080816
31	0xbcf67365	-0.030084321
32	0x3ce85c2d	0.028364265
33	0x3d29fc9e	0.04150068
34	0x3c7063f2	0.014672266
35	0x3cfe3e9f	0.03103572
36	0x3d503beb	0.050838392
37	0xbd644f4c	-0.055739686
38	0xbc3a687a	-0.011377448
39	0xbd4ce772	-0.05002541
40	0xbc7ee393	-0.015557188
41	0xbbb257bf	-0.005442589
42	0xbb9084d3	-0.004410365
43	0x3d2c9842	0.042137392
44	0xbc986a1e	-0.018605288
45	0xbd1d14cc	-0.03834991
46	0x3d18f71d	0.03734504
47	0xbd200eab	-0.03907649
48	0x3ca7ef98	0.02049999
49	0xbcf5231a	-0.029923964
50	0xbd552430	-0.052036464
51	0x3cbe65e6	0.023241948
52	0x3c41e30a	0.0118339155
53	0x3d641ac3	0.055689584
54	0x3da7168c	0.08158597
55	0xbc866c48	-0.016409054
56	0x3be9aa84	0.0071309227
57	0x3c9d0d90	0.019171506
58	0x3d63fc3e	0.05566048
59	0x3cd10736	0.025516134
60	0xbca5d26f	-0.020241944
61	0x3d0fe735	0.035132606
62	0xbd2437df	-0.040092345
63	0xbc92e55a	-0.017931629
64	0x3a9d6c12	0.0012010357
65	0x3c477a58	0.012175165
66	0xbb763fee	-0.0037574726
67	0xbd885e2b	-0.06658586
68	0xbb29643c	-0.0025847098
69	0x3d59901f	0.05311596
70	0xbd1df36c	-0.038562223
71	0x3c504823	0.012712511
72	0xbbeb44b7	-0.0071798223
73	0x3d36ad20	0.0445987
74	0x3da2dde0	0.079524755
75	0xbd27c271	-0.04095692
76	0x3c84e24d	0.01622119
77	0xbb834b00	-0.0040067434
78	0x3c910fe1	0.017707767
79	0xbd0e2e63	-0.034712207
80	0x3d9e6e95	0.077359356
81	0xbcb0907f	-0.021553276
82	0x3d24ddb3	0.04025049
83	0xbd1d1aea	-0.038355745
84	0x3d125a94	0.035730913
85	0x3d139393	0.03602941
86	0xbc3b1f22	-0.011420997
87	0xbd483c0e	-0.048885398
88	0x3c8ccc36	0.01718722
89	0x3c82abff	0.015951155
90	0xbbbe5e7b	-0.005809603
91	0xbd20f294	-0.03929384
92	0x3d404de8	0.046949297
93	0xbb7aeedc	-0.0038289344
94	0xbd7197e1	-0.058982734
95	0x3d44a08c	0.048004672
96	0x3d40a152	0.047028847
97	0xbd806e49	-0.06271035
98	0x3c31244d	0.010811877
99	0xbcd0875e	-0.025455173
100	0x3c722f8e	0.014781846
101	0x3d47cdc6	0.048780225
102	0x3d6ea2a2	0.058260567
103	0xbd520043	-0.05126978
104	0xbd7d436f	-0.061831888
105	0xbd5b175b	-0.05348907
106	0x3cc0c4f5	0.023531416
107	0xbca9de1d	-0.020735795
108	0x3d10195f	0.035180446
109	0xbd6849ae	-0.05671089
110	0x3d403c3a	0.046932437
111	0x3ce6907d	0.02814507
112	0x3c3054b9	0.010762387
113	0xbcea82f7	-0.028626902
114	0x3d0191c4	0.031633154
115	0x3cfa893a	0.030583013
116	0xbd190ab5	-0.037363727
117	0xbd71aa61	-0.059000377
118	0x3c1d7637	0.009610704
119	0x3c5a6bc4	0.013331357

NeuronLine2.weight f4 [60, 120]
0	0xbde801e4	-0.113284856
1	0xbc387be3	-0.011260006
2	0x3d22c835	0.039741714
3	0xbd2daad2	-0.042399235
4	0xbd882d71	-0.06649292
5	0xbc0ed8ed	-0.008718711
6	0xbdc480cf	-0.09594881
7	0xbc953467	-0.018213464
8	0xbccf0d58	-0.025274917
9	0xbbfb05a0	-0.0076605827
10	0x3b1aeeb1	0.0023640806
11	0x3cea3adb	0.028592518
12	0xbdad922e	-0.08475147
13	0x3d5d3095	0.05400141
14	0x3bbd95c1	0.0057856743
15	0xbd43080f	-0.047615107
16	0xbd9a8be4	-0.07546213
17	0x3b86c7da	0.0041131796
18	0xbd82c533	-0.06385269
19	0xbd6765a7	-0.056493428
20	0xbdb27acd	-0.08714829
21	0x3c9312fd	0.01795339
22	0xbd3f4cf8	-0.046704262
23	0xbdd67c54	-0.104729325
24	0x3d120e24	0.035658017
25	0x3d7f6269	0.06234971
26	0x3d3ffab3	0.046869945
27	0x3b8e4dff	0.004342794
28	0xbda17fb5	-0.07885686
29	0xbd452ac7	-0.0481365
30	0xbdb5ece8	-0.08883077
31	0x3ccaf853	0.024776613
32	0xbd2bfdf1	-0.041990224
33	0xbdc7cfd7	-0.09756439
34	0xbdca53a2	-0.09879233
35	0x3d10cb8e	0.035350375
36	0x3d394af8	0.04523751
37	0xbd772a2a	-0.060342945
38	0x3d99a446	0.07502036
39	0xbd0b703c	-0.034042582
40	0x3d1b7a07	0.03795817
41	0x3c61d3a8	0.013783373
42	0xbdb38191	-0.08764947
43	0xbcdb1a3b	-0.026745906
44	0x3d839be3	0.064262174
45	0x3c485c40	0.012229025
46	0x3d6939af	0.056939777
47	0xbd14da31	-0.036340896
48	0xbdc5cf1c	-0.096586436
49	0x3d1468d9	0.036232803
50	0x3dad24f8	0.08454317
51	0xbd4e2d36	-0.050336085
52	0xbda2ce1e	-0.0794947
53	0xbd98f434	-0.07468453
54	0x3cc7fc41	0.024412276
55	0xbcef660a	-0.02922346
56	0xbcd950b8	-0.026527748
57	0x3cce94c0	0.025217414
58	0xbca70ba9	-0.020391302
59	0xbdc70749	-0.097181864
60	0xbd7ee6b4	-0.062231734
61	0x3cb08e4e	0.021552231
62	0xbc536f3e	-0.01290494
63	0x3b90204d	0.004398382
64	0x3d0c6ac4	0.034281507
65	0xbd8be133	-0.06830063
66	0xbc5bffe0	-0.013427705
67	0x3ca7130d	0.020394826
68	0x3d9d1d71	0.07671631
69	0xbc74b0ad	-0.014934701
70	0x3ba0ac3b	0.004903344
71	0x3d12957c	0.03578709
72	0x3d14d064	0.03633155
73	0xbdacdda1	-0.0844071
74	0x3c52177b	0.012822981
75	0xbc447703	-0.011991265
76	0xbd12bbdd	-0.03582369
77	0x3d3510e8	0.044205576
78	0xbdacc5ce	-0.08436166
79	0x3d1005b4	0.03516169
80	0x3d6bdc8b	0.057583373
81	0x3d8421c6	0.06451754
82	0xbc9330a0	-0.017967522
83	0x3d49ccc1	0.049267534
84	0x3c7fbdd6	0.015609225
85	0x3cc2c298	0.02377443
86	0x3c59df4a	0.013297865
87	0x3d048816	0.032356344
88	0xbda1449e	-0.07874416
89	0xbcddcbcb	-0.027074715
90	0xbcb8dd03	-0.022566324
91	0xbd08425f	-0.03326642
92	0x3cc2be3a	0.023772348
93	0xbde1a636	-0.1101803
94	0xbd89d576	-0.067301676
95	0x3d4c5d8c	0.0498939
96	0xbd1a305a	-0.037643768
97	0xba37d980	-0.0007013306
98	0xbd371f32	-0.044707485
99	0x3c84749e	0.016168889
100	0x3cb3dc9f	0.021955786
101	0xbc2078a6	-0.00979439
102	0x3c88d868	0.016704753
103	0x3bc7ea26	0.0061009107
104	0xbdda3ac5	-0.10655741
105	0xbc2db8a4	-0.010603104
106	0x3bc59edf	0.006030902
107	0x3bb3c4ec	0.0054861214
108	0x3d38c31b	0.045107942
109	0x3d1804a0	0.037113786
110	0xbdd502c9	-0.10400922
111	0xbdb7eace	-0.08980332
112	0x3d8bc933	0.06825485
113	0x3b2feae0	0.0026842877
114	0xbd86295e	-0.06550859
115	0x3d7efc59	0.062252376
116	0xbd30e873	-0.04319043
117	0xbd9fa73f	-0.077955715
118	0x3ccd3b63	0.025052732
119	0x3ca7acbc	0.020468108
120	0xbd03b69b	-0.032156568
121	0xbbac25e0	-0.0052535385
122	0xbd4c2f51	-0.049849812
123	0x3d1923d9	0.037387703
124	0xbd169321	-0.036761407
125	0x3cd2d58e	0.025736596
126	0xbcf1beee	-0.029509988
127	0x3d48f0f8	0.04905793
128	0x3ba1b2e0	0.0049346536
129	0xbdb20500	-0.0869236
130	0xbc4c32e4	-0.012463305
131	0x3d041934	0.032250598
132	0xbd6ad3cf	-0.057330903
133	0xbdc0fd3f	-0.09423303
134	0x3ccd2fd9	0.02504723
135	0x3d83a656	0.064282104
136	0xbd840c79	-0.064476915
137	0x3c74b841	0.014936508
138	0x3ccb3ff5	0.02481077
139	0xbdc44295	-0.09583012
140	0x3bc364ab	0.0059629283
141	0x3dad0be7	0.08449536
142	0x3b0d4880	0.0021558106
143	0xbd40f8d4	-0.0471123
144	0xbcd2a225	-0.025712082
145	0xbdb08a2f	-0.086201064
146	0xbd5c9064	-0.05384864
147	0xbd15b8dd	-0.036553252
148	0xbd69dfb4	-0.057098106
149	0x3cd52c79	0.026022183
150	0x3c8b4403	0.017000204
151	0x3d358434	0.04431553
152	0x3c8cc89e	0.017185505
153	0xbd3c7c88	-0.0460172
154	0x3cef15fa	0.029185284
155	0xbce4b0c6	-0.027916323
156	0xbd1ddb6e	-0.038539343
157	0xbdb86006	-0.0900269
158	0xbd1f2deb	-0.03886215
159	0x3d8ad076	0.06778042
160	0xbd78c84f	-0.060737904
161	0x3b8e9210	0.004350908
162	0x3da0849e	0.07837795
163	0xbd719d54	-0.05898793
164	0xbd89993a	-0.06718679
165	0xbdad047b	-0.0844812
166	0x3d59ee3b	0.05320571
167	0xbcfe95c2	-0.03107727
168	0xbd7ad939	-0.061242316
169	0x3bbb3b1f	0.005713835
170	0xbd6cb1c0	-0.057786703
171	0x3cbc244d	0.022966528
172	0xbd6e1baf	-0.05813187
173	0xbd03a97a	-0.032144047
174	0x3cc59e75	0.02412341
175	0xbd8adb1d	-0.06780074
176	0x3ce8f765	0.02843828
177	0xbd1b26b2	-0.0378787
178	0xbd0604a2	-0.032719262
179	0xbda9fa3c	-0.082996815
180	0xbd390e7c	-0.04517983
181	0xbc842ff1	-0.016136141
182	0x3d6f4666	0.058416747
183	0x3bb95033	0.0056553124
184	0x3d078848	0.033088952
185	0x3d9d6844	0.07685903
186	0x3d89dfa4	0.06732109
187	0xbd15ffde	-0.036620967
188	0x3db3089e	0.08741878
189	0x3d032098	0.032013506
190	0x3d41892a	0.04724995
191	0x3da4f0e6	0.0805376
192	0x3d8117c4	0.06303361
193	0xbbe73c46	-0.0070567457
194	0xbda289b5	-0.07936422
195	0x3c501ab5	0.01270168
196	0x3d1670c9	0.036728654
197	0xbd968022	-0.07348658
198	0x3d01b7a0	0.03166926
199	0x3d9672a4	0.07346085
200	0xbd86ce6e	-0.06582342
201	0xbd0e71f7	-0.034776654
202	0xbc52d066	-0.012867069
203	0x3d6a8920	0.05725968
204	0xbd94c221	-0.0726359
205	0x3d4c3ebe	0.049864523
206	0xbdbc5708	-0.091962874
207	0xbdb68159	-0.0891139
208	0xbd9e3cb9	-0.07726426
209	0xbdc6c80b	-0.09706124
210	0xbd3675b3	-0.04454584
211	0xbd81463a	-0.06312223
212	0xbd0ef920	-0.034905553
213	0xbda204c3	-0.079110645
214	0x3c99f26c	0.018792354
215	0xbd84bada	-0.064809516
216	0x3d86c002	0.06579591
217	0x3d5ef4b2	0.05443258
218	0x3d1c9c1c	0.038234815
219	0x3d55e700	0.052222252
220	0xbd180660	-0.037115455
221	0xbc888771	-0.016666146
222	0xbcb7013d	-0.022339458
223	0x3da83ea2	0.08215071
224	0x3da23f6d	0.07922254
225	0xba87f320	-0.001037214
226	0xbcc393c4	-0.023874171
227	0xbd563684	-0.052298084
228	0x3ba902f4	0.0051578227
229	0xbd8de7a8	-0.069289505
230	0x3cd0c663	0.025485223
231	0x3d12f513	0.035878252
232	0xbd81bab5	-0.0633444
233	0xbd919b5f	-0.07109713
234	0x3d95da80	0.07317066
235	0xbd111147	-0.035416868
236	0xbd3584e8	-0.044316202
237	0xbdbeae29	-0.09310562
238	0xbd6f5f33	-0.0584404
239	0x3ce2eb08	0.027699962
240	0xbd9f4334	-0.0777649
241	0xbd2aae2f	-0.04167002
242	0xbc98d37c	-0.018655531
243	0xbd4e121f	-0.05031025
244	0x3e141772	0.14462069
245	0xbde01347	-0.10941177
246	0x3bf2744f	0.007399119
247	0xbbce4ed4	-0.006296018
248	0xbc9e02cc	-0.019288443
249	0xbc3ef394	-0.011654753
250	0xba32db93	-0.000682288
251	0xbb682580	-0.0035422742
252	0x3caa4078	0.020782694
253	0x3d896bfd	0.0671005
254	0xbd8d60a8	-0.06903201
255	0x3dbc0820	0.09181237

NeuronLine2.bias f4 [60]
0	0xbc2dfada	-0.01061889
1	0x3cc3fe5c	0.023924999
2	0xbcb02e01	-0.021506311
3	0x3d67d49f	0.056599256
4	0xbdad01f8	-0.08447641
5	0xbd9b7b31	-0.07591856
6	0xbc4f43ae	-0.012650413
7	0x3d22ae31	0.039716903
8	0x3cf31712	0.029674087
9	0xbdbe37ad	-0.09287963
10	0x3d936510	0.071970105
11	0x3da62200	0.08111954
12	0xbda83d96	-0.082148716
13	0xbd3ab087	-0.045578506
14	0xbdc8cac3	-0.09804299
15	0xbc39e1ea	-0.011345366
16	0xbde8f13d	-0.113741376
17	0xbda3d9d5	-0.080005325
18	0xbd838f05	-0.06423763
19	0xbda128fc	-0.07869145
20	0xbcca0862	-0.0246622
21	0xbda18a81	-0.07887746
22	0xbcb749b1	-0.022374006
23	0x3db43032	0.08798255
24	0x3dcb9327	0.099401765
25	0x3bbdb888	0.00578982
26	0xbdc60745	-0.09669355
27	0x3d99c403	0.075080894
28	0x3c029a20	0.007971317
29	0xbd4c3870	-0.04985851
30	0xbd610d52	-0.054944344
31	0x3cd6ce34	0.026221372
32	0xbd1684d2	-0.03674776
33	0x3bb1570a	0.005411987
34	0x3c1b939c	0.009495642
35	0xbd97558f	-0.07389366
36	0xbbc7d3c9	-0.006098245
37	0xbcd5013e	-0.026001569
38	0x3dbccfbb	0.09219309
39	0x3dccbb4a	0.0999666
40	0xbd40be36	-0.0470564
41	0xbd5302da	-0.05151639
42	0x3c51f27c	0.01281416
43	0x3d4c5d75	0.049893815
44	0x3d659297	0.056048002
45	0xbd58d132	-0.05293388
46	0x3d071a18	0.03298387
47	0xbd1638b7	-0.03667518
48	0x3dce98b6	0.10087721
49	0xbdcf5712	-0.10124029
50	0x3d1dff33	0.038573455
51	0x3db61c6a	0.08892138
52	0x3c3b04a3	0.01141468
53	0x3e041ea3	0.12902312
54	0x3d82c433	0.06385078
55	0x3de3b96a	0.11119349
56	0xbd27b997	-0.040948477
57	0xbde375f4	-0.11106482
58	0x3d7a6248	0.061128885
59	0x3dd3c238	0.10339779

NeuronLine3.weight f4 [10, 60]
0	0xbe10119b	-0.14069216
1	0x3c8c67d4	0.017139353
2	0x3dd4166b	0.103558384
3	0x3dfc55dd	0.123210646
4	0x3cd92faa	0.026511986
5	0x3dedf9b6	0.11619894
6	0xbdef9661	-0.116986044
7	0x3b94ac14	0.004537115
8	0x3dd093e2	0.101844564
9	0xbd9ac12b	-0.07556375
10	0x3db19615	0.08671204
11	0xbe3f7b0a	-0.1869928
12	0x3cd073bd	0.025445813
13	0xbdae2fae	-0.08505188
14	0x3c6aa358	0.014321171
15	0xbe5dacb5	-0.21647914
16	0xbe2bdbf2	-0.16783121
17	0xbda5c4d2	-0.08094181
18	0x3d9fa382	0.077948585
19	0xbdc39ef9	-0.09551806
20	0x3d706df0	0.058698595
21	0xbe8b0be7	-0.27157518
22	0x3da2c585	0.0794783
23	0x3d450ecb	0.04810981
24	0xbe5135f7	-0.20430742
25	0xbe729fef	-0.23693822
26	0x3c2359e2	0.00997016
27	0x3d9db120	0.076997995
28	0x3d9e1455	0.07718722
29	0x3c0b95e6	0.008519625
30	0xbdd5c8e7	-0.1043871
31	0xbc59d71a	-0.013295913
32	0xbe0738bc	-0.13205236
33	0xbd8f548e	-0.069985494
34	0x3dd0fc6c	0.10204396
35	0x3e436365	0.19080885
36	0x3e2dffe1	0.16992141
37	0x3c1b288f	0.009470119
38	0xbe08eedb	-0.13372366
39	0xbe037bdf	-0.12840222
40	0x3d99de2a	0.075130776
41	0xbdaef42c	-0.08542666
42	0x3e382f6f	0.17986844
43	0x3df6a462	0.12043072
44	0x3d4073b5	0.046985347
45	0xbe50620c	-0.20349902
46	0x3db97fb2	0.09057559
47	0xbde1ed68	-0.1103161
48	0xbe1f77b5	-0.15573008
49	0x3e002007	0.12512217
50	0xbe6f2683	-0.23354535
51	0xbde683bf	-0.11255597
52	0xbe3d51f9	-0.18488301
53	0xbe3c411e	-0.18384215
54	0x3e276a5a	0.16349164
55	0x3e40abb5	0.18815501
56	0x3d46b8ab	0.048515957
57	0xbdc78dc5	-0.09743837
58	0x3d925f26	0.071470544
59	0x3e0230d8	0.12713945
60	0xbdca73d3	-0.09885373
61	0x3d2b1c74	0.041775182
62	0xbd94c82e	-0.07264744
63	0xbdd6a71a	-0.10481091
64	0x3d91b7a0	0.07115102
65	0xbdc5e54f	-0.09662878
66	0xbe57f20e	-0.2108843
67	0x3dec4db3	0.115382574
68	0xbd0ff07f	-0.035141464
69	0x3d964b7b	0.073386155
70	0x3e0b8be5	0.13627584
71	0xbdc9d754	-0.09855524
72	0xbdb13e72	-0.086544886
73	0x3e0787cf	0.132354
74	0x3d49b510	0.04924494
75	0xbe1a1d31	-0.15050198
76	0xbe1f085b	-0.15530531
77	0x3e0b8e2f	0.13628457
78	0x3e39a20e	0.18128225
79	0xbcc67f9c	-0.02423077
80	0x3da804fc	0.08204076
81	0xbdec203a	-0.11529584
82	0xbdce82db	-0.100835524
83	0xbca12906	-0.019672882
84	0x3df5a85c	0.119950026
85	0xbdc5f119	-0.09665126
86	0xbd934cd0	-0.07192385
87	0xbd1aef0b	-0.037825625
88	0x3de0d9b6	0.10979025
89	0x3db69cb3	0.08916607
90	0xbe2304e2	-0.15919831
91	0xbddcc061	-0.10778881
92	0x3db571d1	0.088595994
93	0xbe82c4cc	-0.2554077
94	0x3cf730c4	0.03017462
95	0xbe33e9d0	-0.17569661
96	0xbe84645e	-0.25857824
97	0xbe14e22f	-0.14539407
98	0x3ddcb640	0.10776949
99	0x3e06a8e7	0.13150369
100	0x3dcc4c10	0.09975445
101	0x3e0059bd	0.12534232
102	0x3e172d37	0.14763342
103	0xbe510d39	-0.204152
104	0x3e02705d	0.12738176
105	0xbe86c2aa	-0.26320392
106	0xbe648a36	-0.22318348
107	0xbc225677	-0.00990831
108	0xbe59d713	-0.2127345
109	0xbe045439	-0.12922753
110	0x3e190597	0.14943539
111	0x3e450d72	0.1924341
112	0x3d12b9e2	0.035821803
113	0xbe1732bd	-0.14765449
114	0xbe5f7d85	-0.21825226
115	0xbddb7e6e	-0.10717474
116	0xbd7da8aa	-0.06192843
117	0x3db3ae03	0.087734245
118	0xba659a2e	-0.00087586313
119	0x3dc1c699	0.094617076
120	0x3dbfdd11	0.09368337
121	0x3d47f660	0.048818946
122	0x3d661599	0.05617294
123	0x3d35db18	0.044398397
124	0xbdab75a0	-0.083720446
125	0x3d1357dc	0.03597246
126	0xbc0179e4	-0.007902596
127	0xbdd2c198	-0.10290831
128	0xbd31ef0c	-0.043440863
129	0x3d3e2294	0.046419695
130	0xbcdc9d36	-0.026930433
131	0xbcad7fbf	-0.021179078
132	0x3df9d8c2	0.121995464
133	0x3dc314c1	0.09525443
134	0x3cc77788	0.02434899
135	0xbd971dbe	-0.0737872
136	0x3d9bff82	0.076170936
137	0x3de4dca6	0.11174898
138	0x3c399ab0	0.011328384
139	0xbc32bb60	-0.0109089315
140	0xbdd6203f	-0.10455369
141	0xbd758bfb	-0.05994795
142	0x3bd20d40	0.006410271
143	0xbc8e8bfe	-0.017400738
144	0xbdde7ab7	-0.1086325
145	0xbdc7133b	-0.09720465
146	0x3d9f077c	0.077650994
147	0xbd09da61	-0.033655528
148	0xbde25dbf	-0.11053037
149	0x3c8e14bd	0.017343873
150	0xbb1121cc	-0.0022145389
151	0xbe05c838	-0.13064659
152	0xbd839d2e	-0.06426464
153	0xbdea5e9b	-0.11443826
154	0xbd8c9834	-0.06864968
155	0x3dad8768	0.08473092
156	0x3d0f19cc	0.03493671
157	0xbdc253f8	-0.09488672
158	0x3b99266a	0.0046737688
159	0xbd77195a	-0.06032691
160	0x3cb99569	0.022654252
161	0x3d47cdd2	0.04878027
162	0xbdb26edf	-0.08712553
163	0xbccdd1ba	-0.02512442
164	0x3dc8e323	0.09808948
165	0x3d544ca2	0.051830895
166	0x3dd23f14	0.102659374
167	0xbe11887c	-0.14212221
168	0x3dd2871d	0.10279677
169	0x3daaa3a8	0.08331996
170	0x3b814692	0.00394518
171	0x3beff030	0.0073223338
172	0x3db0519e	0.08609317
173	0xbdbf042f	-0.0932697
174	0xbda82ea6	-0.082120225
175	0x3d6c51aa	0.05769507
176	0x3d6623fc	0.05618666
177	0xbda28d25	-0.079370774
178	0xbe17215d	-0.14758821
179	0xbdb9a766	-0.09065132
180	0xbadd80a1	-0.0016899296
181	0xbdd7c3ce	-0.10535394
182	0x3d788191	0.06067044
183	0x3c81dfe7	0.015853835
184	0xbd628f86	-0.055312656
185	0x3dbfa506	0.093576476
186	0xbe7ff480	-0.24995613
187	0xbe48b67e	-0.19600865
188	0xbddb95a2	-0.107218996
189	0x3c17c10b	0.009262334
190	0xbe5322aa	-0.20618692
191	0xbe11b5a1	-0.14229442
192	0xbda57b2c	-0.08080134
193	0xbe1b3f5a	-0.15160885
194	0x3dd9e69a	0.10639687
195	0xbdf29052	-0.11843933
196	0xbca088bd	-0.019596452
197	0xbe8113f7	-0.25210544
198	0xbdfa511e	-0.12222503
199	0x3bde98d6	0.006793122
200	0xbd837c0a	-0.06420143
201	0x3c8d65ce	0.017260458
202	0x3d87c927	0.06630164
203	0xbe3f51be	-0.18683526
204	0x3e22b2cf	0.15888523
205	0xbe223efa	-0.15844336
206	0x3dd6e86b	0.10493549
207	0x3d0cb678	0.034353703
208	0x3e1cbd16	0.15306506
209	0xbdd3aed9	-0.10336084
210	0x3e149800	0.14511108
211	0x3dedebaf	0.11617219
212	0x3c8247d1	0.015903385
213	0xbbff7081	-0.007795394
214	0xbdaace3f	-0.083401196
215	0x3d84c042	0.06481983
216	0x3dd59641	0.10429049
217	0xbd2d572a	-0.042319454
218	0x3e2a1dee	0.1661298
219	0x3dedf9f1	0.11619938
220	0x3d7ba903	0.06144048
221	0x3e516fad	0.20452757
222	0xbe64a880	-0.22329903
223	0x3bef072f	0.0072945575
224	0xbcc6b013	-0.02425388
225	0x3e1369d2	0.14395836
226	0xbdbbca72	-0.09169473
227	0xbe4e22f1	-0.20130517
228	0xbcce2f9c	-0.025169186
229	0xbdcd55c9	-0.10026128
230	0x3e4bc505	0.19899376
231	0xbe7e44db	-0.24830954
232	0x3cac38d8	0.021023199
233	0xbdea9ab9	-0.11455292
234	0x3ce9df59	0.028548883
235	0xbd906147	-0.07049804
236	0x3dc74f48	0.097319186
237	0xbd1c3c7e	-0.038143627
238	0x3e03c96b	0.12869804
239	0x3d3a2091	0.045441214
240	0x3ce816f5	0.02833126
241	0x3da16b76	0.07881825
242	0x3de920bc	0.11383197
243	0x3df948b8	0.12172073
244	0x3ccf2340	0.025285363
245	0xbda4f5e4	-0.080547124
246	0x3dd1411b	0.10217496
247	0xbdaf405b	-0.08557197
248	0xbdd25bf9	-0.10271449
249	0x3da671da	0.08127184
250	0x3da15a6d	0.078785755
251	0xbe48a9e5	-0.1959606
252	0xbb928981	-0.004471958
253	0x3e2a595d	0.16635652
254	0xbdceecfb	-0.10103794
255	0xbdd47b3b	-0.10375067

NeuronLine3.bias f4 [10]
0	0x3dfb2eff	0.12264823
1	0x3e22395c	0.15842193
2	0xbd5bd34f	-0.053668316
3	0x3dde661d	0.1085932
4	0x3d6f958b	0.058492225
5	0x3d149c99	0.036282156
6	0xbd2642a9	-0.040590916
7	0xbe07830c	-0.13233584
8	0x3db6e508	0.08930403
9	0x3df6ff2b	0.12060388
